scripts/model_ep0.pth (torch, 540894 bytes, 45 tensors)

shared_layers.0.weight f4 [128, 13]
0	0xbe0fba36	-0.14035878
1	0xbe21c131	-0.15796353
2	0xbe25ffd5	-0.16210873
3	0xbe11224f	-0.14173244
4	0x3e4d565d	0.20052476
5	0xbdf31773	-0.11869707
6	0x3e4030d3	0.18768625
7	0x3e4ee76a	0.20205465
8	0xbcc25946	-0.02372421
9	0xbe183d0f	-0.14867042
10	0x3deedc24	0.11663082
11	0xbe359c8d	-0.177355
12	0xbd8dc591	-0.069224484
13	0x3e1d7141	0.15375234
14	0x3d7bdea9	0.061491642
15	0x3d36f210	0.044664443
16	0x3d80500a	0.06265266
17	0x3d7cd204	0.061723724
18	0xbd378ef6	-0.044814073
19	0xbbbf561f	-0.005839124
20	0xbcdb34e3	-0.026758617
21	0xbe05e8eb	-0.13077132
22	0xbdfebd84	-0.12438491
23	0x3d5314ea	0.051533617
24	0xbe0cabda	-0.13737431
25	0xbe2dbc65	-0.16966398
26	0xbd8ce954	-0.06880441
27	0xbe4be8da	-0.19913045
28	0x3dafe51a	0.085886195
29	0x3c05a4fd	0.008157012
30	0xbd6e8b69	-0.05823842
31	0xbc3a9782	-0.011388661
32	0x3e4a6b3a	0.19767466
33	0xbde83332	-0.1133789
34	0xbe1b1bf2	-0.15147379
35	0x3d8670ed	0.06564508
36	0x3e27d7c4	0.16390902
37	0x3cea7208	0.028618827
38	0xbb8397ea	-0.0040159123
39	0x3db189c0	0.08668852
40	0x3d782319	0.060580347
41	0xbd5c3844	-0.053764597
42	0x3d3d622b	0.0462362
43	0xbdb8a9dd	-0.09016774
44	0xbd92b2ae	-0.07162987
45	0x3d25e14a	0.040498056
46	0xbdd03c6a	-0.10167773
47	0xbe35f3ad	-0.17768736
48	0x39e3dec9	0.00043462802
49	0xbda964bc	-0.08271167
50	0xbe1012b8	-0.1406964
51	0x3e1daf7a	0.1539897
52	0x3e53a3bf	0.20667933
53	0xbca2efcd	-0.019889737
54	0xbd38ab08	-0.045084983
55	0xbd956b67	-0.07295876
56	0xbe488093	-0.19580297
57	0x3e3dd7f6	0.18539414
58	0xbe31072b	-0.1728789
59	0x3dec4e74	0.11538401
60	0xbdf14f4e	-0.11782704
61	0xbda00b5f	-0.07814669
62	0x3dcb9b14	0.09941688
63	0xbe24c5b9	-0.1609105
64	0x3e1c8a71	0.15287186
65	0xbe32cb94	-0.17460471
66	0xbd32e5a3	-0.04367603
67	0xbda166ec	-0.07880959
68	0x3d9a288c	0.07527265
69	0xbe0d6a0e	-0.13809988
70	0xbd94be7c	-0.072628945
71	0x3d113bf8	0.03545758
72	0xba946ed8	-0.0011324538
73	0xbd619683	-0.05507518
74	0x3c1b6fca	0.009487102
75	0xbe10826e	-0.14112255
76	0xbe48fda4	-0.19628006
77	0x3e00d0b9	0.12579621
78	0x3e1b8dac	0.15190762
79	0x3e06a46b	0.13148658
80	0x3e112eb4	0.14177972
81	0xbe03c272	-0.12867144
82	0x3d98b11a	0.074556544
83	0x3e529838	0.2056588
84	0xbe3fbb5f	-0.1872382
85	0xbdfe4f4b	-0.12417468
86	0x3c50c2cc	0.012741756
87	0xbcc40b56	-0.023931187
88	0x3e0f8204	0.14014441
89	0x3dee05ee	0.11622225
90	0x3e18f03b	0.1493539
91	0x3de4a178	0.1116361
92	0x3d690447	0.056888845
93	0x3db43dee	0.08800875
94	0x3c8b69d0	0.017018229
95	0x3e0143b5	0.12623484
96	0xbdf3d54e	-0.11905919
97	0x3ddff52c	0.10935435
98	0x3c11bd6a	0.0088952575
99	0x3dd32b99	0.1031105
100	0xbdced9c9	-0.10100133
101	0xbddae8b9	-0.106889196
102	0x3d95d172	0.07315339
103	0xbe1f91e0	-0.1558299
104	0xbdc1c275	-0.09460918
105	0x3e4c61c5	0.19959171
106	0xbdd2f2c0	-0.10300207
107	0x3d9b2308	0.07575041
108	0x3d515f0f	0.051116046
109	0xbe35ea4c	-0.17765158
110	0xbe174796	-0.14773402
111	0xbe330a06	-0.17484292
112	0x3d563bd5	0.052303154
113	0x3da2fadd	0.079580046
114	0x3e49f4de	0.19722316
115	0x3e109bb8	0.14121902
116	0xbdb0da7c	-0.086354226
117	0xbe362398	-0.17787015
118	0xbe12ccd2	-0.14335945
119	0xbdb1a8c8	-0.086747706
120	0xbd07255f	-0.032994624
121	0xbe3afeeb	-0.18261306
122	0xbd8ae4f5	-0.06781951
123	0xbd853236	-0.065037176
124	0xbe4a8515	-0.1977733
125	0x3e39dbe1	0.18150283
126	0x3e4ea95a	0.2018179
127	0xbdd310dc	-0.1030595
128	0xbe107219	-0.14106025
129	0x3e1da215	0.1539386
130	0x3d5aa694	0.053381518
131	0xbdbff0d3	-0.093721054
132	0x3c723e0b	0.0147853
133	0xbe2606b0	-0.16213489
134	0x3d371c1a	0.044704534
135	0xbcf3d75d	-0.02976578
136	0xba8f6388	-0.0010939697
137	0x3e28c35d	0.16480775
138	0x3dcc90a8	0.099885285
139	0xbe04966d	-0.12948008
140	0xbd943fee	-0.07238756
141	0xbd8b3866	-0.067978665
142	0xbe156bc1	-0.14591886
143	0xbdf554f3	-0.119790934
144	0xbd43bb2c	-0.047785923
145	0x3e06d520	0.13167238
146	0xbe09f50f	-0.13472389
147	0x3e34566e	0.17611095
148	0xbac0957b	-0.0014692986
149	0xbe40cf3c	-0.18829054
150	0xbe42c8fd	-0.19021983
151	0x3c7b3d95	0.0153345065
152	0xbe3f2a50	-0.18668485
153	0x3ce35d1b	0.027754357
154	0x3c8576e6	0.016292047
155	0xbd6ba84f	-0.05753356
156	0xbd7221cb	-0.05911426
157	0x3d084688	0.03327039
158	0x3e3056c3	0.17220597
159	0x3d6525dd	0.055944312
160	0x3ce956e1	0.02848381
161	0xbcd49a7b	-0.025952568
162	0xbd635efc	-0.055510506
163	0x3d7d24c5	0.061802644
164	0x3e377d28	0.17918837
165	0x3dc95581	0.09830762
166	0xbde11912	-0.1099111
167	0x3e33d2a7	0.17560826
168	0xbe082d2f	-0.13298486
169	0xbcaa2792	-0.020770822
170	0x3e4f06dc	0.2021746
171	0x3e0cc78b	0.13747995
172	0xbe3e9773	-0.18612461
173	0x3c175006	0.009235388
174	0x3b2c4c25	0.0026290503
175	0xbd001695	-0.031271536
176	0xbda5a119	-0.080873676
177	0x3dc04d9b	0.09389802
178	0xbd4a2476	-0.049351178
179	0x3e22489c	0.15848011
180	0xbc37f75a	-0.011228407
181	0x3e0ee2f3	0.13953762
182	0xbdb5dcf6	-0.088800356
183	0xbe03793e	-0.12839219
184	0xbe458c26	-0.19291744
185	0x3d334f53	0.04377682
186	0xbccd57fe	-0.025066372
187	0xbe2e8b8b	-0.17045419
188	0x3de7a17a	0.11310096
189	0xbe4d636c	-0.20057458
190	0x3e51bea6	0.20482883
191	0xbdfa08be	-0.12208699
192	0x3d505a1e	0.050867192
193	0x3e1480c4	0.14502245
194	0x3e21b636	0.15792164
195	0xbd7a343c	-0.06108497
196	0xbd7b5a5a	-0.061365463
197	0xbd2337c7	-0.039848115
198	0x3e071278	0.13190639
199	0x3d4d8fe8	0.050186068
200	0xbe4f3c58	-0.20237863
201	0x3e1d3046	0.15350446
202	0xbda6ed0a	-0.0815068
203	0xbc497e32	-0.012298154
204	0x3de5f7b8	0.11228889
205	0x3d92e47c	0.07172486
206	0x3dbdd7b9	0.092696615
207	0xbe3678fb	-0.17819588
208	0xbdc5de19	-0.096615024
209	0xbd98f667	-0.074688725
210	0xbddffd80	-0.10937023
211	0x3d798e20	0.060926557
212	0x3ddc1238	0.107456625
213	0x3d511ba7	0.051051762
214	0x3df90b71	0.121603854
215	0xbe51d661	-0.20491935
216	0x3e445461	0.19172813
217	0xbe0eecda	-0.13957539
218	0xbe08df5b	-0.13366453
219	0xbde97576	-0.11399357
220	0x3e275f6a	0.16344991
221	0x3c372be1	0.011179895
222	0xbd2af725	-0.0417396
223	0xbce18709	-0.02753021
224	0xbd924bcc	-0.07143363
225	0xbe52f0a8	-0.20599616
226	0x3e48465e	0.19558093
227	0x3e382141	0.17981435
228	0xbe51f1e8	-0.20502436
229	0xbe481912	-0.19540814
230	0x3e06c015	0.13159211
231	0xbdd822c3	-0.10553505
232	0x3d5bc9b4	0.053659156
233	0xbdf94f1e	-0.121732935
234	0x3da9dfd5	0.08294646
235	0x3dacf922	0.08445956
236	0x3d315e05	0.043302555
237	0xbe2a8682	-0.16652873
238	0x3d5ca4a0	0.053867936
239	0xbe41d769	-0.18929829
240	0xbd0a6276	-0.033785306
241	0x3de34694	0.11097446
242	0xbe06c359	-0.13160457
243	0x3cf73636	0.030177217
244	0xbd2dea63	-0.042459857
245	0x3e08c1d3	0.13355188
246	0xbd4a5b2f	-0.049403366
247	0x3e286bb6	0.16447338
248	0x3d8b3e13	0.06798949
249	0x3dab3ddf	0.0836141
250	0x3d0cfbd4	0.03441985
251	0x3da57f05	0.08080868
252	0x3e3d23e5	0.18470724
253	0x3d21b8fd	0.03948306
254	0xbd833717	-0.06406992
255	0xbd16f068	-0.036850363

shared_layers.0.bias f4 [128]
0	0xba9cd6df	-0.0011965892
1	0x3a9d3ec7	0.0011996859
2	0xba9b50f6	-0.001184969
3	0x3a9d7cff	0.0012015401
4	0x3a9af131	0.0011821148
5	0x38994cf9	7.309946e-05
6	0x3a9950b6	0.0011697027
7	0xba9bc4a8	-0.001188417
8	0xba9cc588	-0.0011960724
9	0x3a868096	0.001026171
10	0x3a99b79b	0.0011727692
11	0x3a9d78f8	0.0012014201
12	0xba9b6e75	-0.001185848
13	0x3a9d927f	0.0012021809
14	0x3a9d3f1e	0.001199696
15	0xba98e0f2	-0.0011663719
16	0x3a9d8934	0.0012019039
17	0x3a17aefa	0.00057862664
18	0xba9a0e51	-0.0011753534
19	0xba9b9a74	-0.0011871592
20	0xba910789	-0.0011064868
21	0x3a9aba76	0.0011804837
22	0xba88c631	-0.0010435042
23	0xba87ff7b	-0.0010375822
24	0x3a9d91a9	0.001202156
25	0x3a977738	0.0011555916
26	0xba942d62	-0.0011305029
27	0xba9c439b	-0.0011922003
28	0x3a9174a1	0.001109738
29	0x3a944331	0.0011311529
30	0xba9bacb0	-0.0011877026
31	0xba9d9883	-0.0012023601
32	0x3a98f54a	0.0011669782
33	0x3a8e222e	0.0010843927
34	0xba4c3619	-0.00077900436
35	0x3a9d61d7	0.0012007308
36	0x3a9d8ed0	0.0012020711
37	0x3a9ca7e5	0.0011951892
38	0xba8b0c51	-0.0010608529
39	0x3a98b8b8	0.001165173
40	0x3a9d354c	0.0011994033
41	0x3a9d72ee	0.0012012401
42	0xba9c9f4f	-0.0011949333
43	0x3a9d87a2	0.0012018571
44	0x39c38298	0.00037290598
45	0xba9d5732	-0.0012004136
46	0xba9d8491	-0.0012017657
47	0x3a9db757	0.0012032789
48	0xba9cd933	-0.0011966586
49	0xba9911ac	-0.001167824
50	0x3a9d7c68	0.0012015225
51	0x3a9d9647	0.0012022936
52	0x3a9db0a6	0.0012030795
53	0xba9d6fcf	-0.0012011471
54	0xba8aa914	-0.0010578954
55	0x3a8417ec	0.001007793
56	0x3a9d7be2	0.0012015069
57	0xba9c336d	-0.0011917182
58	0xba92f8d6	-0.0011213075
59	0x3a9d8bae	0.0012019777
60	0x3a9d741e	0.0012012755
61	0xba88b44c	-0.0010429709
62	0xba9cdde0	-0.0011967979
63	0x3a9d309e	0.0011992638
64	0xba9d9dd0	-0.0012025181
65	0xba9bf3ef	-0.0011898259
66	0x3a9d7573	0.0012013152
67	0xba9db67f	-0.0012032537
68	0x3a9b47ac	0.0011846921
69	0x3a9d1f7a	0.001198753
70	0x3a94423b	0.0011311242
71	0x3a9d0b1e	0.0011981463
72	0xba9c53f2	-0.0011926873
73	0x00000000	0.0
74	0x3a9d047e	0.0011979488
75	0xba9bf746	-0.0011899255
76	0x3a4d60cc	0.0007834553
77	0xba9bcb8a	-0.0011886221
78	0x39ac7cd2	0.00032899395
79	0xba9d50bd	-0.0012002211
80	0xba5860c7	-0.0008254167
81	0x3a9d9770	0.0012023281
82	0xba9aadd5	-0.0011801074
83	0x3a9d0868	0.0011980655
84	0x39e78f00	0.00044166297
85	0x3a998561	0.0011712724
86	0xba9d3da3	-0.0011996519
87	0x3a9d89e7	0.0012019248
88	0xba9d6675	-0.0012008684
89	0xba952e2e	-0.001138156
90	0x3a9c4fd2	0.0011925644
91	0x3a9db55f	0.0012032202
92	0xba9b58ac	-0.0011851988
93	0x3a9d6da3	0.0012010824
94	0x3a9d7c52	0.00120152
95	0xba9aa77d	-0.0011799183
96	0xba9abc3b	-0.0011805365
97	0x3a9daebb	0.0012030223
98	0xba93a845	-0.0011265358
99	0x3a96d89f	0.001150865
100	0xba9c6867	-0.001193297
101	0x3a9c0e5e	0.0011906137
102	0xba9b099a	-0.0011828423
103	0x3a9d4434	0.0011998476
104	0xba9d9eb4	-0.0012025447
105	0xba9c7965	-0.0011938034
106	0x37ff7ee0	3.045745e-05
107	0xba9d5760	-0.0012004189
108	0x3a931ea6	0.0011224344
109	0xba9d66b4	-0.0012008757
110	0xba9ccaf3	-0.0011962339
111	0x3a9d77a2	0.0012013803
112	0xba9cb6d4	-0.0011956342
113	0x3a9cf46e	0.0011974701
114	0xba9d764a	-0.0012013402
115	0x3a99cd3f	0.0011734142
116	0x3a956faf	0.0011401082
117	0xba9d9877	-0.0012023587
118	0xba9acc3d	-0.0011810135
119	0xba8f39d1	-0.0010927265
120	0x3a82eb60	0.000998836
121	0xba9ccc20	-0.001196269
122	0xba9d6a51	-0.0012009834
123	0xba9d4c12	-0.001200082
124	0x3a69b358	0.0008914969
125	0x3a998e77	0.0011715431
126	0xba2c433f	-0.00065713
127	0x3a9d7eb1	0.0012015906

shared_layers.2.weight f4 [128, 128]
0	0xbcde3cf9	-0.027128683
1	0xbd765a09	-0.060144458
2	0xbdea9ad7	-0.114553146
3	0x3cdcbee5	0.026946494
4	0xbe15e6fb	-0.14638893
5	0xbbda423d	-0.0066607282
6	0x3c72be08	0.014815815
7	0xbe0a1bbd	-0.13487144
8	0xbd0a98ae	-0.033837013
9	0xbc83ab2d	-0.016072834
10	0x3cfb8716	0.030704062
11	0x3dec3114	0.115327984
12	0xbe065e9f	-0.13122033
13	0xba8b0ab4	-0.0010608048
14	0xbe1af344	-0.15131861
15	0xbe09881d	-0.1343083
16	0xbcc772a2	-0.024346653
17	0x395f955b	0.00021322577
18	0xbbb55374	-0.00553363
19	0xbdfa31ad	-0.12216506
20	0x3d92e030	0.071716666
21	0xbd3813b0	-0.04494065
22	0xbda1b657	-0.07896107
23	0x3c97ffae	0.018554535
24	0xbdaf7728	-0.08567649
25	0x3d8229e5	0.06355647
26	0x3bf4e006	0.0074729947
27	0x3e07674b	0.13222997
28	0xbdba7de8	-0.09106046
29	0x3c8e4c11	0.017370256
30	0xbe0c5d21	-0.13707401
31	0xbe09952f	-0.13435815
32	0x3b5befdc	0.0033559715
33	0x3d8cf5ca	0.06882818
34	0xbd823512	-0.063577786
35	0x3ddc40e9	0.10754568
36	0x3d400a85	0.046885032
37	0x3d3d8095	0.046265204
38	0xbe0fda40	-0.140481
39	0x3c86dccf	0.016462712
40	0x3e04e7cc	0.12979048
41	0xbc9c9acb	-0.01911678
42	0xbdbfd324	-0.09366444
43	0x3e126efa	0.14300147
44	0x3d33a17d	0.04385518
45	0xbd872906	-0.065996215
46	0x3cc4fc56	0.024046104
47	0xbcca48b6	-0.024692874
48	0x3dec0351	0.1152407
49	0xbdb27896	-0.08714406
50	0xbcb91cbb	-0.022596708
51	0x3da2cc71	0.0794915
52	0x3d907e21	0.07055307
53	0x3df59951	0.119921334
54	0x3d06755f	0.032826778
55	0xbcc2c78e	-0.023776796
56	0xbd27018c	-0.04077296
57	0xbcc8f4c1	-0.02453077
58	0xbdb0db2c	-0.08635554
59	0xbdcfeff8	-0.10153192
60	0xbd0e35b3	-0.03471918
61	0xbd484554	-0.04889424
62	0xbdccb354	-0.099951416
63	0x3dbf1b7e	0.093314156
64	0x3d297b8b	0.041377585
65	0xbdee1d18	-0.11626643
66	0xbd7c9564	-0.061665908
67	0xbd307901	-0.04308415
68	0x3dfc7e83	0.12328818
69	0x3e192de1	0.14958908
70	0x3d402417	0.046909418
71	0xbd74ee6a	-0.059797682
72	0xbe017bfa	-0.1264495
73	0xbc1a5f61	-0.009422154
74	0x3db0c3a3	0.08631065
75	0xbd0d3045	-0.03446986
76	0x3e08440f	0.13307212
77	0x3e13cad2	0.14432839
78	0xbdc567fe	-0.096389756
79	0x3ce71ef6	0.028213006
80	0xbc8fba3e	-0.017544862
81	0xbc9fbc4a	-0.019498963
82	0x3e169670	0.14705825
83	0x3e1713b7	0.14753614
84	0xbdc12758	-0.09431332
85	0xbdf46040	-0.11932421
86	0xbd37421d	-0.044740785
87	0x3e1b47d3	0.15164118
88	0x3dd3894f	0.10328924
89	0x3d926edd	0.07150052
90	0xbc14948e	-0.009068621
91	0xbd26f976	-0.04076525
92	0xbdba7884	-0.09105018
93	0x3d819b68	0.063284695
94	0xbe0e7fb3	-0.13915901
95	0xbbc9dc8b	-0.006160324
96	0xbda79dfb	-0.08184429
97	0xbc83caf8	-0.016087994
98	0xbb414c24	-0.0029494846
99	0x3d599e4e	0.053129487
100	0x3e15d119	0.14630546
101	0x3d91aff7	0.07113641
102	0x3e0a51fd	0.13507839
103	0x3dc881e6	0.09790401
104	0x3dca13de	0.098670706
105	0x3e1a1af2	0.15049341
106	0xbdb8a71b	-0.09016248
107	0x3ddc98cb	0.107713304
108	0xbd941f9b	-0.07232591
109	0x3d5a63d0	0.053317845
110	0xbca0da33	-0.019635295
111	0x3c11ea10	0.0089059025
112	0xbce1e728	-0.027576044
113	0xbd3da4dc	-0.0462998
114	0xbd84de78	-0.06487745
115	0x3dd6e6e2	0.10493256
116	0xbdaccb06	-0.08437161
117	0xbe07bc1c	-0.13255352
118	0x3e0583b9	0.1303853
119	0xbd4b752c	-0.04967229
120	0x3ccdcd2b	0.025122246
121	0xbd88b573	-0.06675234
122	0xbd47bd68	-0.048764616
123	0x3d9df590	0.07712853
124	0xbd86e4d1	-0.06586612
125	0xbc8cd33d	-0.01719057
126	0x3d35232f	0.044223007
127	0x3d900e03	0.070339225
128	0x3df4d5bd	0.1195483
129	0xbdb79a6e	-0.08965002
130	0xbdd42311	-0.10358251
131	0x3d1aace1	0.037762526
132	0x3d95900e	0.07302867
133	0xbd1abf1f	-0.037779924
134	0x3d35ae90	0.04435593
135	0x3d05ebcb	0.032695573
136	0xbbc53902	-0.0060187588
137	0x3e178ee9	0.1480061
138	0x3c580354	0.013184387
139	0xbda1476a	-0.07874949
140	0x3dce8d2b	0.100855194
141	0xbdc39844	-0.09550527
142	0x3c8564d2	0.016283426
143	0x3dad0e11	0.084499486
144	0x3cc9022e	0.024537172
145	0xbd1c5419	-0.03816614
146	0x3d2aa21e	0.041658513
147	0x3db91a0e	0.09038173
148	0x3d9576c7	0.072980456
149	0xbcc33110	-0.023827106
150	0xbe16f71c	-0.14742702
151	0x3db1bc7d	0.086785294
152	0x3d87045d	0.06592629
153	0xbd45e578	-0.04831454
154	0x3dbae4d2	0.09125675
155	0x3da71de5	0.08159999
156	0xbe129ef2	-0.14318445
157	0x3cc82b02	0.02443457
158	0x3d35ea80	0.04441309
159	0xbba79c98	-0.005115103
160	0xbc5e7446	-0.013577526
161	0x3d002b94	0.03129156
162	0x3c8d314d	0.017235423
163	0x3da23d48	0.07921845
164	0x3d4040d6	0.046936832
165	0xbc17117b	-0.009220476
166	0x3e1a1415	0.15046723
167	0xb96b9d6b	-0.00022469989
168	0x3d75be5a	0.059995987
169	0x3dd174d5	0.10227362
170	0xbe12a7dc	-0.14321846
171	0x3d3f24ca	0.046665944
172	0xbd7d2295	-0.061800558
173	0xbe107754	-0.1410802
174	0xbd99bfff	-0.075073235
175	0xbb9e9f06	-0.0048407344
176	0x3a422892	0.0007406558
177	0x3d3dbd20	0.04632294
178	0xbdee3773	-0.1163167
179	0xbd6aba0e	-0.05730634
180	0x3d12618a	0.03573755
181	0xbdc7aa8c	-0.09749326
182	0x3d0b7770	0.03404945
183	0x3da13b7c	0.07872674
184	0xbd5d399f	-0.05401003
185	0x3c445c7a	0.011984939
186	0x3ccb34ec	0.024805509
187	0xbdc9ff49	-0.09863145
188	0x3d704459	0.05865893
189	0xbe16b316	-0.14716753
190	0xbc203223	-0.0097775785
191	0x3df63d36	0.12023394
192	0x3cc9f2ac	0.024651848
193	0xbd369e14	-0.04458435
194	0x3decb7af	0.11558472
195	0xbe185737	-0.1487702
196	0x3cc74d05	0.024328718
197	0xbd101cde	-0.03518378
198	0x3df558f5	0.11979858
199	0x3d9c02d4	0.07617727
200	0x3d900f9e	0.07034229
201	0xb828b568	-4.022327e-05
202	0xbdb821cd	-0.08990822
203	0xbca096b8	-0.019603118
204	0xbd107b4e	-0.035273843
205	0x3e1d73ef	0.15376256
206	0x3d335945	0.043786306
207	0x3dac0700	0.08399773
208	0xbe1860bf	-0.14880656
209	0x3d8bcf13	0.06826606
210	0x3df264b2	0.11835612
211	0x3d44bdbc	0.048032507
212	0x3d656a69	0.056009684
213	0xbd86f9f5	-0.06590644
214	0x3da37486	0.079812095
215	0x3e0a2e69	0.13494267
216	0xbd829634	-0.06376305
217	0x3c838f14	0.016059436
218	0x3d9275b4	0.07151356
219	0x3caa6789	0.020801323
220	0x3e0beaa2	0.13663724
221	0x3dcb8c68	0.0993889
222	0xbe0eaa37	-0.1393212
223	0x3ddaa313	0.10675635
224	0x3d19b7e9	0.037528906
225	0x3dbfd40f	0.09366619
226	0xbde17dd8	-0.11010331
227	0xbcc0e53f	-0.023546813
228	0xbe180078	-0.14843929
229	0x3dcb2114	0.099184185
230	0x3c962bf6	0.01833151
231	0xbd8fb72d	-0.0701736
232	0xbcee11d0	-0.029061228
233	0xbc8dd29a	-0.017312337
234	0xbde0b4d6	-0.10971992
235	0x3e07c04c	0.13256949
236	0xbd512bb8	-0.051067084
237	0x3e151e03	0.1456223
238	0xbde9e340	-0.114202976
239	0xbd849c25	-0.06475095
240	0xbcbbdf92	-0.022933755
241	0xbda11a88	-0.078663886
242	0x3e192d24	0.14958626
243	0x3b6f096e	0.0036474126
244	0x3b9ae24b	0.0047266833
245	0x3c8354e1	0.016031684
246	0xbdc72fd2	-0.09725918
247	0x3cd49f5f	0.0259549
248	0xbba38a78	-0.004990872
249	0xbd732b38	-0.05936739
250	0xbd2e9434	-0.042621806
251	0xbde093f6	-0.10965721
252	0x3bc3f64e	0.0059802895
253	0xbe0ae1e4	-0.13562733
254	0xbd6ec640	-0.058294535
255	0xbd8d2cab	-0.06893285

shared_layers.2.bias f4 [128]
0	0x3a9c0dcc	0.0011905967
1	0x3a898b39	0.0010493762
2	0x3a9d1faa	0.0011987586
3	0x3a9db89d	0.0012033168
4	0x3a9db818	0.0012033014
5	0x3a9d769a	0.0012013495
6	0xba9d4ef6	-0.0012001682
7	0x00000000	0.0
8	0x00000000	0.0
9	0x3a9d2faa	0.0011992354
10	0x39c2506d	0.00037062485
11	0x3a9d9121	0.0012021401
12	0x398da49c	0.0002701626
13	0xba9a2560	-0.0011760406
14	0x3a9cf50d	0.0011974886
15	0xba9ceda2	-0.0011972676
16	0xba89ef9c	-0.001052368
17	0xba9d3fa6	-0.0011997118
18	0xba9cf54e	-0.0011974962
19	0x3a9daaf8	0.0012029102
20	0xba9d454b	-0.00119988
21	0xba833816	-0.0010011222
22	0xba9b4b55	-0.0011848012
23	0x3a9d64bf	0.0012008174
24	0x3a9cdb8c	0.0011967286
25	0xba9cfb8c	-0.0011976822
26	0x3a9d02ac	0.0011978946
27	0x00000000	0.0
28	0x00000000	0.0
29	0xba9d501c	-0.0012002024
30	0x3a9cbe96	0.0011958655
31	0x3a9ccede	0.0011963507
32	0xb98652b6	-0.00025620096
33	0xba12f432	-0.0005605846
34	0xba9be408	-0.001189352
35	0x3a9d9358	0.0012022061
36	0x3a337fb0	0.0006847335
37	0x3a9d7d14	0.0012015426
38	0x3a9d4420	0.0011998452
39	0xba99d7a2	-0.0011737237
40	0x3a9d9f9a	0.0012025714
41	0x3a9d88d4	0.0012018927
42	0xba9ba8e9	-0.0011875901
43	0x3935e48b	0.00017346644
44	0xb960d53b	-0.00021441739
45	0xba9cf2bc	-0.0011974196
46	0x3a9d728f	0.001201229
47	0x3a9d4857	0.0011999708
48	0x00000000	0.0
49	0x3a9b89d6	0.001186664
50	0x3a9d8b4b	0.0012019662
51	0xb99412be	-0.00028242724
52	0x00000000	0.0
53	0x00000000	0.0
54	0xba98fc51	-0.0011671876
55	0x3a9d8c7c	0.0012020017
56	0xba8d7445	-0.0010792097
57	0x3a9d9ef4	0.0012025521
58	0xba98257a	-0.0011607849
59	0x3a9d9ff8	0.0012025824
60	0xb90992d1	-0.00013120032
61	0xba99a718	-0.0011722771
62	0x3a9c4fee	0.0011925676
63	0x3a9cf22f	0.0011974032
64	0x3a9d8f49	0.0012020852
65	0xba9bcc06	-0.0011886365
66	0x3a9cfa59	0.0011976465
67	0x3a9d2ed7	0.0011992109
68	0x3a938ac2	0.0011256563
69	0xba9c8422	-0.0011941234
70	0x3a908b1f	0.001102779
71	0x00000000	0.0
72	0x3a9da9ca	0.001202875
73	0xba9beea7	-0.0011896685
74	0xb805f518	-3.1937932e-05
75	0x3a9d8112	0.0012016615
76	0x3a9be921	0.0011895039
77	0xb95e67a0	-0.00021210173
78	0xba9d6b6b	-0.0012010162
79	0xba969b16	-0.0011490311
80	0x3a9ca026	0.0011949583
81	0xba9d7523	-0.0012013059
82	0x00000000	0.0
83	0xba95f47e	-0.0011440662
84	0xba89b241	-0.0010505394
85	0x3a9be9cc	0.0011895238
86	0xba9c3564	-0.0011917767
87	0xba9d571c	-0.001200411
88	0xba9d6ae0	-0.0012010001
89	0xba99d30a	-0.0011735868
90	0xba852cf3	-0.0010160491
91	0x39d17baa	0.00039955723
92	0x3a9cd795	0.0011966104
93	0xba9d454c	-0.0011998801
94	0xba97dfde	-0.0011587103
95	0xba9d75fa	-0.0012013309
96	0xba8aa3ca	-0.0010577377
97	0xba9cd38b	-0.00119649
98	0x3a9dba4a	0.0012033668
99	0x3a83cd4e	0.0010055692
100	0xba9ca23c	-0.0011950205
101	0x3a98c552	0.0011655486
102	0x3a9d4586	0.0011998869
103	0x3a9da036	0.0012025896
104	0xb9e8885c	-0.00044352084
105	0x3a9daa34	0.0012028874
106	0x3a9dbc76	0.0012034315
107	0xba998ba0	-0.0011714585
108	0x3a95280c	0.0011379733
109	0x3a9c6d34	0.00119344
110	0xba93505f	-0.0011239162
111	0xba8f05eb	-0.0010911798
112	0xba9c08c3	-0.0011904467
113	0x3a9d5aea	0.0012005244
114	0xba55d4a0	-0.0008156989
115	0x3a9d516f	0.0012002419
116	0xba9c6727	-0.0011932597
117	0x3a911265	0.0011068104
118	0x3a9d92ed	0.0012021937
119	0xba155c0d	-0.00056976156
120	0xba9c24da	-0.0011912838
121	0xba9b3ea1	-0.0011844226
122	0xba9bebb7	-0.001189581
123	0xba9b143e	-0.0011831594
124	0xba9c835f	-0.0011941007
125	0x3a9d5d94	0.0012006038
126	0xba9d824a	-0.0012016979
127	0x3a9d4e8f	0.0012001562

actor_mu.0.weight f4 [64, 128]
0	0xbe06e4f0	-0.1317327
1	0xbd2d0301	-0.042239193
2	0x3e289ad6	0.16465315
3	0x3e0504be	0.1299009
4	0x3e2820b0	0.1641872
5	0xbca2d962	-0.019879047
6	0xbdea0b86	-0.11427979
7	0x3e2533e4	0.16133076
8	0x3cef7321	0.029229702
9	0xbd965cb4	-0.073419005
10	0xbe240580	-0.16017723
11	0x3e3228f1	0.1739843
12	0x3d62576a	0.055259146
13	0x3d9a51f8	0.075351655
14	0xbe1c3d5d	-0.15257783
15	0x3ddc0abe	0.107442364
16	0xbe0028e1	-0.12515594
17	0x3d8193f3	0.06327047
18	0xbd9fe26d	-0.07806859
19	0x3cc4cf06	0.024024498
20	0x3d94df01	0.07269097
21	0xbce814d8	-0.028330252
22	0xbe2ee4ad	-0.1707942
23	0xbcf89f38	-0.030349359
24	0xbd08181f	-0.03322613
25	0x3d7c2f63	0.06156863
26	0xbe0909df	-0.13382672
27	0xbc4d066a	-0.012513736
28	0x3b000173	0.0019532114
29	0x3db7f5b1	0.08982409
30	0xbcdd0148	-0.02697815
31	0xbd5c64e3	-0.05380715
32	0x3e11e915	0.1424907
33	0x3e24b918	0.16086233
34	0x3e150fff	0.14556883
35	0xbc0de191	-0.008659736
36	0xbd071f2d	-0.032988716
37	0x3d01a504	0.03165151
38	0xbd822ff1	-0.063568
39	0x3de27f8a	0.110594824
40	0xbe21a246	-0.15784559
41	0x3c8497b6	0.016185623
42	0x3e33e316	0.17567095
43	0x3dce4bc8	0.10073048
44	0x3a413a5c	0.0007371062
45	0xbe2b4afd	-0.16727825
46	0xbe03a972	-0.12857607
47	0xbc01a525	-0.007912909
48	0x3d3dd73a	0.046347834
49	0x3d4d7f09	0.05016998
50	0x3c7950dd	0.015217033
51	0x3d8c44f3	0.068490885
52	0x3e233d2a	0.15941301
53	0x3d5af778	0.05345866
54	0x3d383147	0.04496887
55	0x3d0c8d04	0.03431417
56	0x3d6d04e8	0.057866007
57	0xbe14d973	-0.14536075
58	0xbc6484fe	-0.013947723
59	0x3e16612a	0.14685503
60	0xbe2ad4bf	-0.16682719
61	0x3e303758	0.17208612
62	0x3e0756e5	0.13216741
63	0xbc6a11d8	-0.014286481
64	0xbc1067e5	-0.008813833
65	0x3d766346	0.06015327
66	0x3d52610c	0.051362082
67	0x3dc5e6f9	0.09663195
68	0x3e0644b5	0.13112147
69	0xbcb976ac	-0.022639595
70	0xbd82280b	-0.06355294
71	0xbe1aaa8c	-0.15104121
72	0xbd3856a3	-0.0450045
73	0x3bb05b24	0.0053819586
74	0xbdafce5c	-0.08584282
75	0x3d18b947	0.03728607
76	0xbbe7fbd7	-0.007079582
77	0x3e01273f	0.12612627
78	0xbdf1cc4b	-0.11806544
79	0xbd6c7bd9	-0.057735298
80	0xbe331013	-0.174866
81	0x3e33993a	0.1753892
82	0x3d48d4d9	0.049031112
83	0xbd0b8e95	-0.034071524
84	0x3da6511e	0.081209406
85	0xbc32f080	-0.0109215975
86	0xbd8ffe73	-0.07030954
87	0x3cf512ed	0.029916251
88	0xbe19c734	-0.15017396
89	0x3e11f1bd	0.14252372
90	0x3ddf900d	0.109161474
91	0x3e2d4919	0.16922416
92	0x3df024a9	0.11725742
93	0x3ca2bfc0	0.019866824
94	0xbd1b4817	-0.037910547
95	0xbe2ed9d6	-0.17075285
96	0xbd5cf9d9	-0.05394921
97	0x3e16de70	0.1473329
98	0xbcfa23f2	-0.030534718
99	0x3df9c9ae	0.121966705
100	0x3b89a178	0.004200157
101	0x3dd61fc2	0.10455276
102	0xbe33ad27	-0.17546521
103	0x3e2df9f6	0.16989884
104	0x3d053d80	0.032529354
105	0xbd7637cc	-0.060111806
106	0x3de4e0ce	0.111756906
107	0x3e0b9d61	0.13634254
108	0x3da9af06	0.08285336
109	0xbded05a4	-0.115733415
110	0xbc395bc4	-0.011313383
111	0x3d9daf78	0.07699484
112	0x3e191611	0.14949824
113	0x3df87127	0.12130957
114	0x3cc35519	0.023844289
115	0xbd82359a	-0.0635788
116	0x3d7e662f	0.06210917
117	0x3d4e4bc6	0.050365232
118	0x3e07cc2a	0.13261476
119	0xbe04adf8	-0.12956989
120	0x3e09fc21	0.13475086
121	0x3dc09faa	0.094054535
122	0xbe0c4e37	-0.13701712
123	0xbe0b596f	-0.13608335
124	0xbd2b383a	-0.04180167
125	0x3e08f7eb	0.13375823
126	0xbdeaa34f	-0.1145693
127	0x3da63e76	0.08117382
128	0xbe066171	-0.13123108
129	0x3da12151	0.07867683
130	0x3d14ed54	0.036359146
131	0x3be7b536	0.0070711626
132	0x3e088ed0	0.13335729
133	0x3dcb44dd	0.09925244
134	0xbe078cb5	-0.13237269
135	0x3e0a825e	0.13526294
136	0xbe2b278a	-0.16714302
137	0xbe04c8e1	-0.12967254
138	0x3d6691bd	0.05629133
139	0x3e0b7d53	0.13622026
140	0xbe0d1f5b	-0.13781492
141	0xbd8c27c7	-0.068435244
142	0xbcb44881	-0.022007229
143	0x3e2dfd60	0.16991186
144	0x3e1f4180	0.1555233
145	0xbdd712b3	-0.105016135
146	0xbc37bdbd	-0.011214671
147	0x3decfc8e	0.115716085
148	0x3c8e97e1	0.017406406
149	0xbd927314	-0.07150856
150	0xbdd62f75	-0.104582705
151	0xbe01b8e9	-0.12668194
152	0xbbb16d80	-0.0054146647
153	0xbdc12115	-0.09430138
154	0x3e13998e	0.14414045
155	0x3dc66635	0.09687463
156	0xbe005ecf	-0.12536167
157	0x3c92951b	0.017893365
158	0x3e0fc5c6	0.14040288
159	0x3d28a714	0.041174963
160	0x3bc8b261	0.00612478
161	0xbd080809	-0.033210788
162	0xbe1a3b09	-0.15061583
163	0x3dfd4ebd	0.12368534
164	0xbdc1502d	-0.094391204
165	0x3e07facc	0.13279265
166	0xbe0cb5c5	-0.13741215
167	0x3e251168	0.16119921
168	0x3daaf30d	0.083471395
169	0xbe26de26	-0.1629568
170	0xbe01bda5	-0.1267
171	0xbbbdf471	-0.005796962
172	0x3de2a994	0.11067501
173	0x3d8c9cf5	0.06865875
174	0xbade52fe	-0.001696199
175	0xbddbb970	-0.10728729
176	0x3d92d74c	0.07169971
177	0xbd285e4a	-0.041105546
178	0xbdeb0e8b	-0.11477383
179	0x3cfeffd6	0.031127851
180	0x3df98f5a	0.12185545
181	0x3de963cb	0.11395987
182	0x3cdba2ee	0.02681109
183	0xbddab0b6	-0.10678236
184	0x3e0e8a30	0.13919902
185	0x3e217aed	0.15769549
186	0xbd9b542f	-0.07584416
187	0x3dd5db0b	0.1044217
188	0x3dffff8a	0.12499912
189	0xbb40bf53	-0.0029410913
190	0x3e137915	0.14401658
191	0x3e07393a	0.13205424
192	0xbda1aae8	-0.07893926
193	0x3d3cd829	0.046104584
194	0x3e0d78d0	0.13815618
195	0xbe1a871f	-0.15090607
196	0x3dbfe983	0.09370711
197	0x3c1570bb	0.009121115
198	0x3d97e828	0.07417327
199	0x3e266052	0.16247681
200	0xbe20ddd3	-0.15709619
201	0x3dfd9f91	0.123839505
202	0x3d635fcf	0.055511292
203	0xbe16afcb	-0.14715497
204	0xbe24c903	-0.16092305
205	0x3c77b55b	0.015118922
206	0xbd70a510	-0.058751166
207	0xbd984408	-0.07434851
208	0x3e15beca	0.14623562
209	0x3c9c2c7b	0.019064179
210	0x3beaf938	0.0071708225
211	0x3c12c0f1	0.008957134
212	0x3d8c9427	0.06864195
213	0xbd921124	-0.071321756
214	0x3d7cf255	0.061754543
215	0x3e320634	0.17385179
216	0x3e0cdc6f	0.13755964
217	0xbb68a733	-0.003550005
218	0xbdbdb6ec	-0.09263405
219	0xbd868215	-0.0656778
220	0x3d708ab0	0.058726013
221	0x3c21d86f	0.009878262
222	0x3d2b37b7	0.04180118
223	0xbe000109	-0.12500395
224	0xbe0db5a3	-0.1383882
225	0x3da86ffa	0.08224483
226	0xbe3390e8	-0.17535746
227	0x3e27f3a9	0.16401543
228	0xbe2c08ae	-0.16800186
229	0x3b6d4369	0.003620351
230	0x3e24a418	0.16078222
231	0xbdae8281	-0.085209854
232	0x3e2cc39c	0.16871494
233	0xbe3344af	-0.1750667
234	0xbe0f985a	-0.14022961
235	0x3bda0ce2	0.006654368
236	0xbb6f6537	-0.0036528835
237	0xbde610ab	-0.11233648
238	0xbe158324	-0.14600807
239	0x3e0d8d8b	0.13823526
240	0xbca2758b	-0.01983144
241	0x3e303534	0.17207795
242	0xbd5e6855	-0.054298718
243	0x3e199a6a	0.1500031
244	0xbda7dee1	-0.08196808
245	0xb9f694d6	-0.00047031668
246	0x3e0f5356	0.13996634
247	0x3b7445c6	0.0037273034
248	0x3e34bd2d	0.1765029
249	0xbd8afae5	-0.067861356
250	0x3dfc96b9	0.123334356
251	0x3cde63f0	0.027147263
252	0x3b7dd571	0.0038731957
253	0x3d24fe0d	0.040281344
254	0x3e26cb78	0.16288555
255	0xbdc9a215	-0.09845368

actor_mu.0.bias f4 [64]
0	0x3a9c8479	0.0011941335
1	0x3a1592a1	0.00057057483
2	0x00000000	0.0
3	0xba9a497c	-0.0011771168
4	0x37cfdfcc	2.4780536e-05
5	0x3a8a0e9a	0.0010532916
6	0x3a97cfaf	0.001158228
7	0xba9b5d44	-0.0011853357
8	0x3a9c38b9	0.001191876
9	0x3a9b0728	0.0011827694
10	0xb9636def	-0.0002168936
11	0x3a9901c6	0.0011673502
12	0x3a9c29d2	0.0011914319
13	0xba922c8c	-0.0011152192
14	0x3a9cad9c	0.0011953595
15	0x3a98aa7b	0.0011647487
16	0x3a939ec1	0.0011262522
17	0x3a99ffde	0.0011749228
18	0x3a1b0d3a	0.00059147517
19	0x00000000	0.0
20	0xba983173	-0.0011611417
21	0xba9d8795	-0.0012018556
22	0xba966fb4	-0.0011477382
23	0xba9acb06	-0.0011809773
24	0xba484474	-0.0007639595
25	0x3a9a4355	0.0011769334
26	0xba9b9ce3	-0.0011872317
27	0x3a9bd015	0.0011887575
28	0xba9a7744	-0.0011784812
29	0xba833d19	-0.0010012715
30	0xba981ae6	-0.0011604696
31	0x3a8afadf	0.001060333
32	0xba958def	-0.0011410097
33	0x00000000	0.0
34	0xba93f95e	-0.0011289527
35	0xba8f993c	-0.0010955702
36	0x3a9c64b6	0.001193187
37	0x3a9668f5	0.0011475371
38	0x3a9c714e	0.0011935623
39	0xba9643e4	-0.0011464325
40	0x3a9b957a	0.0011870109
41	0x00000000	0.0
42	0x3a93d301	0.0011278094
43	0xba9c70ce	-0.0011935474
44	0xba98823c	-0.0011635493
45	0xba9bea46	-0.001189538
46	0x39e77615	0.0004414773
47	0x00000000	0.0
48	0x3a9d2162	0.0011988098
49	0x00000000	0.0
50	0x3a7468b8	0.00093234656
51	0x3a9a5317	0.001177403
52	0xba926f3b	-0.0011172065
53	0xb88f9e5e	-6.8482695e-05
54	0xba9cbdd0	-0.0011958424
55	0xba96c5c4	-0.001150303
56	0x3a9bf57c	0.0011898722
57	0xba9d2df0	-0.001199184
58	0xba8d5cb2	-0.0010785072
59	0x3a92382a	0.0011155654
60	0x3a9a2de9	0.001176295
61	0x3a9c906a	0.0011944894
62	0x3a9c342e	0.0011917406
63	0x00000000	0.0

actor_mu.2.weight f4 [3, 64]
0	0xbe5e3322	-0.21699193
1	0x3e0f3ca9	0.13987984
2	0xbd178b65	-0.03699817
3	0xbdbbc492	-0.09168352
4	0xbe82169e	-0.2540788
5	0x3e02ee4b	0.12786214
6	0xbe90fc35	-0.2831742
7	0x3d54add6	0.051923595
8	0x3e294f00	0.16534042
9	0x3e61d52c	0.22053975
10	0xbdab2e54	-0.08358446
11	0x3d8fef08	0.070280135
12	0xbe64197a	-0.22275344
13	0xbe71627c	-0.23572725
14	0xbb9b62e4	-0.0047420133
15	0xbc020b46	-0.007937258
16	0x3d28bb74	0.041194394
17	0x3e964874	0.29352152
18	0x3e89b511	0.26895955
19	0x3ca4b96f	0.020107953
20	0xbd96171b	-0.07328626
21	0x3d2c4c03	0.042064678
22	0x3cdb8f46	0.026801717
23	0xbdeb42eb	-0.11487373
24	0xbe8ea311	-0.27858785
25	0x3e933039	0.28747728
26	0xbd8f3207	-0.06991964
27	0x3e7936d4	0.24337322
28	0xbe1523db	-0.14564459
29	0x3db140f6	0.086549684
30	0xbe81a366	-0.25319976
31	0x3d17e03b	0.037079077
32	0x3e0784ad	0.13234206
33	0xbe14bbce	-0.14524767
34	0xbd1695df	-0.036764022
35	0x3d5f9c43	0.054592382
36	0x3e69babb	0.22825138
37	0xbe01cfad	-0.12676878
38	0x3e86bcf2	0.2631603
39	0x39414c65	0.00018434373
40	0x3d5e9d6a	0.05434934
41	0xbd496b94	-0.04917486
42	0x3d6f1716	0.058371626
43	0xbdbcd902	-0.092210785
44	0xbe8691a9	-0.26283005
45	0x3d8aa635	0.06769983
46	0xbe3f8b59	-0.187055
47	0x3d5f32cf	0.054491814
48	0x3e69ca4f	0.22831081
49	0x3e925c7d	0.28586188
50	0xbdd7677c	-0.10517785
51	0x3e71efb7	0.236266
52	0x3e230b20	0.15922213
53	0x3e77fdc4	0.24217898
54	0xbc28e705	-0.010308986
55	0xbe8a8463	-0.27054128
56	0x3dce1024	0.10061672
57	0xbda438c9	-0.080186434
58	0xbe1c635a	-0.15272275
59	0x3e5e3e25	0.21703394
60	0xbe4be7ab	-0.19912593
61	0x3e653d6f	0.22386716
62	0x3e398c12	0.18119839
63	0x3df9b9b2	0.12193622
64	0x3e94075e	0.2891187
65	0xbc6344dc	-0.013871398
66	0xbde002bb	-0.10938021
67	0xbe568e8e	-0.20952818
68	0x3dbda00b	0.092590414
69	0xbe815e21	-0.25267127
70	0x3e886f5a	0.26647455
71	0xbe671ce1	-0.2256961
72	0x3e57440b	0.2102205
73	0x3e40b113	0.18817548
74	0x3c812506	0.015764724
75	0x3dfb16cf	0.1226021
76	0x3e2e8d99	0.17046203
77	0x3e41336a	0.18867269
78	0x3e261676	0.16219506
79	0x3e87a27a	0.26491147
80	0x3e82b27b	0.25526795
81	0x3de2653f	0.110544674
82	0x3e2f90a3	0.17145018
83	0xbe51afee	-0.20477268
84	0xbc9df43b	-0.019281497
85	0xbe85abc2	-0.26107603
86	0xbd77504e	-0.06037932
87	0xbde49e94	-0.11163059
88	0x3dafd47a	0.085854486
89	0xbd6fec8d	-0.0585752
90	0xbe2eddce	-0.170768
91	0x3e80a1a6	0.25123328
92	0x3d3d3127	0.046189453
93	0x3de3f04a	0.11129816
94	0xbd9845c9	-0.074351855
95	0x3dcdd4f5	0.10050384
96	0xbd892e35	-0.066982664
97	0x3e1e86b6	0.15481076
98	0x3d89f763	0.067366384
99	0x3dc870d3	0.097871445
100	0x3e90f5a2	0.28312403
101	0x3db0aa67	0.08626252
102	0x3cbcdd9d	0.023054892
103	0xbe4c1c72	-0.19932726
104	0x3e3f9ef7	0.18712984
105	0xbe6e4933	-0.23270111
106	0xbd40ea23	-0.04709829
107	0xbe6531a9	-0.22382225
108	0x3cc7e8cb	0.024402997
109	0xbe7cc2a0	-0.24683619
110	0x3de72907	0.11287122
111	0xbe97584e	-0.2955956
112	0x3e9387f9	0.28814676
113	0xbd2dbb97	-0.042415228
114	0xbc908b15	-0.017644444
115	0x3e924a90	0.28572512
116	0xbe482db7	-0.19548689
117	0xbe75a2fa	-0.23987952
118	0xbe52e6d0	-0.2059586
119	0xbc52c775	-0.012864937
120	0x3e0832ea	0.13300672
121	0xbde8f83c	-0.11375472
122	0xbe96a2b7	-0.29421017
123	0xbd221769	-0.039573107
124	0x3de45455	0.111488976
125	0x3d1af5c4	0.037832037
126	0x3e8d33d0	0.27578592
127	0xbe8840cc	-0.26611936
128	0x3b08ee6e	0.0020894068
129	0xbc2bd723	-0.010488304
130	0x3e951934	0.2912079
131	0x3e95b3f7	0.29238865
132	0x3d15d675	0.036581475
133	0x3e815d09	0.25266293
134	0xbcf1be98	-0.029509827
135	0xbe2797b2	-0.16366461
136	0x3d552e53	0.05204613
137	0x3dd8723b	0.10568663
138	0xbdb176dc	-0.08665249
139	0xbe34c713	-0.17654066
140	0xbe8a8013	-0.27050838
141	0x3e4bfa0f	0.19919609
142	0x3df32ab7	0.118733816
143	0x3e424dbd	0.18974967
144	0xbdc05018	-0.09390277
145	0xbe200f20	-0.1563077
146	0x3e68a989	0.22720923
147	0x3e25d527	0.16194592
148	0xbb985ee1	-0.0046499823
149	0xbe44fdf2	-0.19237497
150	0xbde80c4f	-0.11330473
151	0x3dbf7fcf	0.093505494
152	0xbe8a4215	-0.27003542
153	0x3e36d34e	0.17854044
154	0xbda0f5f7	-0.07859414
155	0xbd8f797c	-0.07005593
156	0xbe4d9e9e	-0.20080039
157	0xbdb90943	-0.0903497
158	0xbd49d45b	-0.049274784
159	0xbe0b0917	-0.13577686
160	0xbdb7e872	-0.08979882
161	0x3e1e1adc	0.15439934
162	0xbdfd735a	-0.12375517
163	0xbbae99e4	-0.005328404
164	0x3e53fed5	0.2070268
165	0x3d046666	0.032324217
166	0x3d18d4d8	0.03731236
167	0x3e6259b9	0.22104539
168	0xbc53ba27	-0.0129228
169	0xbe922427	-0.28543207
170	0xbe379152	-0.17926529
171	0x3e28acb6	0.16472134
172	0xbda7dce2	-0.08196427
173	0xbd8c85b0	-0.06861436
174	0x3e5f56fa	0.21810523
175	0x3e2da655	0.16957982
176	0xbda49d30	-0.08037794
177	0xbda523ba	-0.08063455
178	0x3e2e56b1	0.17025258
179	0xbe906602	-0.28202826
180	0x3e1c576c	0.15267724
181	0x3e35943f	0.17732333
182	0xbd049817	-0.032371607
183	0xbe6ac15f	-0.22925328
184	0xbe8fa73a	-0.2805727
185	0xbe47452e	-0.19459984
186	0xbe4a3687	-0.19747363
187	0x3e0972fd	0.13422771
188	0x3e020a6d	0.1269929
189	0x3e45c78a	0.193144
190	0x3b47fc8c	0.003051552
191	0xbe8082ec	-0.25099885

actor_mu.2.bias f4 [3]
0	0x3a969fe4	0.0011491743
1	0x3a9c4928	0.0011923658
2	0x3a9c65a4	0.0011932147

actor_sigma.0.weight f4 [64, 128]
0	0x3de879fc	0.11351392
1	0x3d754356	0.05987867
2	0x3d75d310	0.060015738
3	0xbdb84b90	-0.089987874
4	0x3db53e91	0.08849824
5	0xbe2f243d	-0.17103668
6	0x3d6b334b	0.057421964
7	0xbe085066	-0.1331192
8	0xbd2cfcd1	-0.042233292
9	0x3b99188d	0.004672116
10	0x3db984a9	0.09058506
11	0xbe141519	-0.14461173
12	0x3d2ff01d	0.0429536
13	0xbe1af3d3	-0.15132074
14	0x3b9ef1e8	0.004850615
15	0x3e0f8344	0.14014918
16	0xbbe2e5c7	-0.0069243643
17	0x3e11e6ea	0.14248243
18	0x3d24721c	0.040147886
19	0xbda49c9c	-0.08037683
20	0x3d8dd66c	0.06925663
21	0x3c018f9c	0.007907774
22	0x3e1156c9	0.14193262
23	0xbd2a027c	-0.041506276
24	0xbcf591a8	-0.02997668
25	0x3cbb46c4	0.022860892
26	0xbd2b09dd	-0.041757453
27	0x3d9eb918	0.077501476
28	0xbe32dac1	-0.1746626
29	0xbb41a491	-0.0029547552
30	0x3d53f10c	0.051743552
31	0xbc1735ef	-0.009229167
32	0x3e0431c5	0.1290961
33	0xbe0ddc86	-0.13853654
34	0x3e0294cb	0.12752073
35	0x3ddd70d5	0.108125366
36	0x3ce273a4	0.027643032
37	0xbda72d43	-0.0816293
38	0x3ddbfe1f	0.10741829
39	0x3d79472d	0.060858894
40	0xbd30e061	-0.043182734
41	0xbdf49570	-0.119425654
42	0xbe104315	-0.1408809
43	0xbd0885f9	-0.03333089
44	0x3e2fc902	0.17166522
45	0xbde2d655	-0.11076037
46	0xbd1a6af0	-0.03769964
47	0x3dc0d535	0.09415666
48	0xbd41f2b8	-0.047350615
49	0xbdb65a91	-0.08903993
50	0x3d26d8b8	0.040734023
51	0x3dd6e12e	0.10492168
52	0xbcf3da64	-0.029767223
53	0xbb893889	-0.0041876477
54	0x3e0d7829	0.13815369
55	0x3d1bad67	0.038007166
56	0x3d27da6f	0.0409798
57	0x3d352c8f	0.044231948
58	0x3d9bed73	0.07613649
59	0xbd4bc880	-0.04975176
60	0xbe270daf	-0.16313814
61	0x3c8c1b2a	0.017102797
62	0x3cbd3136	0.023094755
63	0xbe15560c	-0.14583606
64	0x3d77630d	0.060397197
65	0x3cdc9ccc	0.026930235
66	0x3d97b286	0.074070975
67	0xbd2eae2f	-0.042646583
68	0xbdf0e77b	-0.117629014
69	0x3d2d3f9f	0.042297002
70	0xbdc4a526	-0.09601812
71	0x3d46d778	0.04854533
72	0x3d84fc30	0.064934134
73	0x3d7e5e45	0.06210162
74	0x3d5dc939	0.05414698
75	0xbd1978ed	-0.03746884
76	0x3d78ded2	0.060759373
77	0xbdcdfd2f	-0.100580566
78	0xbe204eae	-0.15655014
79	0x3dae2aed	0.08504281
80	0x3e1a6f77	0.15081583
81	0x3e09726b	0.13422553
82	0xbdd66248	-0.104679644
83	0xbde91e38	-0.11382717
84	0xbddf60ab	-0.1090711
85	0x3dc66376	0.096869394
86	0x3cd112e9	0.025521712
87	0xbe284562	-0.16432717
88	0xbcd081f6	-0.025452595
89	0xbdcf0ce6	-0.10109882
90	0xbded76c1	-0.11594916
91	0x3e1db6fa	0.15401831
92	0x3e113fce	0.14184496
93	0x3e1fd0fc	0.15607065
94	0x3da455fd	0.080242135
95	0xbd3ab812	-0.0455857
96	0x3da13af0	0.078725696
97	0xbda1338b	-0.07871159
98	0x3bdf2587	0.0068098935
99	0xbe06072f	-0.13088678
100	0x3de49bc2	0.11162521
101	0x3db0b235	0.0862774
102	0x3da767de	0.08174108
103	0xbcb1f6ba	-0.021724094
104	0x3dccb33d	0.099951245
105	0x3e1b3e9f	0.15160607
106	0x3d4abe8a	0.04949812
107	0x3deb5899	0.11491508
108	0xbe18d978	-0.14926708
109	0x3aac6fb3	0.0013155848
110	0x3cc69f0b	0.02424576
111	0xbe1074ba	-0.14107028
112	0x3ccdd8e3	0.025127834
113	0xbdc234b8	-0.094827116
114	0xbd6ee532	-0.058324046
115	0x3c72452c	0.014787
116	0xbd1c0110	-0.03808695
117	0xbdef786e	-0.11692892
118	0x3de858c4	0.11345056
119	0x3da47eff	0.08032035
120	0xbcf91de1	-0.030409755
121	0x3d89959b	0.06717988
122	0xbda761b4	-0.08172932
123	0x3db480bf	0.08813619
124	0xbdcc82b3	-0.099858664
125	0x3d655907	0.055993106
126	0x3d95f1e4	0.073215276
127	0xbc5effa8	-0.013610758
128	0x3da570e1	0.080781706
129	0x3daf6ec0	0.08566046
130	0x38861078	6.3926855e-05
131	0x3e291fb7	0.16516005
132	0xbe0ab6e7	-0.13546334
133	0xbd947490	-0.07248795
134	0xbe2dcc99	-0.16972579
135	0xbe272bfe	-0.16325375
136	0x3e2d505d	0.16925187
137	0x3daa2477	0.08307736
138	0x3c90ea05	0.017689714
139	0xbd00db3b	-0.031459074
140	0x3d989d72	0.07451905
141	0xbdd868a8	-0.105668366
142	0x3e20c76b	0.15701072
143	0xbdf2fad2	-0.118642464
144	0x3e321aaf	0.17392991
145	0xbc7e4182	-0.015518548
146	0xbcec8457	-0.028871698
147	0xbcacab05	-0.021077642
148	0xbdd51a6a	-0.10405429
149	0x3d4f591f	0.050622102
150	0x3db4c1ca	0.08826025
151	0xbdacf040	-0.084442616
152	0x3d036e27	0.03208747
153	0xbd87d57f	-0.06632518
154	0xbe311cd1	-0.17296149
155	0x3e02bfcf	0.12768482
156	0x3d967f85	0.07348541
157	0x3e163189	0.14667334
158	0x3e30315c	0.17206329
159	0x3dfeb140	0.124361515
160	0x3ddcadcf	0.10775339
161	0xbe2a3d55	-0.16624959
162	0xbe02ac9f	-0.12761162
163	0xbca4ced5	-0.020118156
164	0x3e0eb4ba	0.13936129
165	0x3e2d253a	0.16908732
166	0x3d97a3e2	0.07404305
167	0x3e256472	0.16151598
168	0xbe1d0534	-0.15334016
169	0xbe12e42c	-0.14344853
170	0x3d34828f	0.044069823
171	0xbcd32ab1	-0.025777193
172	0xbe17cfc6	-0.14825353
173	0xbc02dd0e	-0.007987274
174	0xbd7e97ab	-0.06215636
175	0xbd9382cd	-0.07202683
176	0xbdc569b7	-0.09639304
177	0x3b8561fd	0.004070519
178	0xbdd0e28f	-0.101994626
179	0x3e18ca99	0.14921035
180	0x3de22ead	0.11044059
181	0xbdec0c5c	-0.11525795
182	0xbe33e0bc	-0.17566198
183	0x3d5e7ceb	0.05431835
184	0xbd230ad4	-0.03980525
185	0xbdc8f74a	-0.09812792
186	0xbd7c3404	-0.061573043
187	0x3dd535d4	0.104106575
188	0xbd541e0b	-0.051786464
189	0xbe2d09d6	-0.16898283
190	0xbe24286b	-0.16031043
191	0x3d3d761c	0.046255216
192	0xbd53b4c0	-0.05168605
193	0x3d00171a	0.03127203
194	0x3dc3afcb	0.09555014
195	0x3e1ce412	0.15321377
196	0xbd469a3f	-0.048486944
197	0xbd90d328	-0.07071525
198	0xbd170d8f	-0.036878165
199	0xbe20639d	-0.15663
200	0xbda9199b	-0.08256837
201	0xbe15d3fc	-0.14631647
202	0xbda321a0	-0.07965398
203	0xbda6117b	-0.08108803
204	0x3e218c9b	0.15776293
205	0xbdd0b84f	-0.10191404
206	0x3e02eb8d	0.12785168
207	0xbdad7089	-0.0846873
208	0x3c16c34a	0.009201834
209	0xbc8a653c	-0.016893975
210	0x3c17ab7f	0.009257196
211	0xbdb25241	-0.08707095
212	0x3c8edbd3	0.017438805
213	0xbdece66f	-0.11567389
214	0x3d5e4cda	0.05427251
215	0x3cf38726	0.02972753
216	0x3d99b899	0.07505912
217	0x3d79751e	0.060902707
218	0xbdcb88a9	-0.09938175
219	0xbd7c349d	-0.061573613
220	0x3dba1779	0.09086508
221	0x3c03e51a	0.008050228
222	0x3dffca5b	0.12489768
223	0xbd1d95bb	-0.038472872
224	0x3dfd497c	0.12367532
225	0x3dc7b564	0.097513944
226	0x3df8b356	0.121435806
227	0x3e0a62ab	0.13514201
228	0x3db6ae75	0.08919994
229	0x3d82ac77	0.06380551
230	0xbd6a886c	-0.05725901
231	0xbdfb61dc	-0.122745246
232	0xbe283367	-0.16425858
233	0xbda8d5d4	-0.082439095
234	0xbdcf89b1	-0.101336844
235	0xbe0428c9	-0.12906183
236	0x3d15c2a1	0.036562566
237	0x3da6c04f	0.08142149
238	0x3c1bb9e8	0.009504773
239	0x3cac0627	0.020999027
240	0xbd20da4e	-0.03927069
241	0xbdb2a61a	-0.087230876
242	0xbe0a42d1	-0.13502051
243	0x3de921db	0.113834105
244	0xbb8e344a	-0.0043397294
245	0xbd289383	-0.041156303
246	0x3e1220a5	0.14270265
247	0xbc0b7d5f	-0.0085137775
248	0xbe2153ca	-0.15754619
249	0x3de17b48	0.11009842
250	0x3dac8f11	0.08425725
251	0x3dc1c701	0.09461785
252	0xbc83ede5	-0.016104648
253	0xbde114e4	-0.10990313
254	0x3db2c632	0.08729209
255	0xbcef77a3	-0.029231852

actor_sigma.0.bias f4 [64]
0	0x3a40cb3a	0.0007354502
1	0x3a403076	0.000733144
2	0x3a423fac	0.00074100005
3	0x3a3d40dc	0.00072194426
4	0x3a3fb72a	0.00073133653
5	0x3a3fa5b6	0.00073107646
6	0x3a403e9f	0.000733355
7	0x3a408107	0.00073434453
8	0x3a40ab14	0.00073497114
9	0x3a3fe44c	0.00073200907
10	0x3a44b4c0	0.00075037405
11	0x3a40639b	0.0007339061
12	0x3a400a0a	0.00073257147
13	0x3a401911	0.0007327954
14	0x3a4099b0	0.000734712
15	0x3a3d8b30	0.00072305184
16	0x00000000	0.0
17	0x3a40b482	0.00073511165
18	0x3a4184b8	0.00073821424
19	0x3a4068ac	0.0007339816
20	0x3a3fb49a	0.00073129835
21	0x3a408543	0.00073440763
22	0x3a405b1b	0.00073377945
23	0x3a40b388	0.0007350971
24	0x3a4037b0	0.0007332517
25	0x34b67b67	3.398993e-07
26	0x3a406972	0.00073399313
27	0x3a4079a6	0.0007342346
28	0x3a40b67e	0.0007351412
29	0x3a40e11a	0.00073577615
30	0x3a40b9ac	0.0007351886
31	0x3a40b416	0.00073510536
32	0x3a40b512	0.00073512003
33	0x3a412180	0.00073673576
34	0x3a404edc	0.000733597
35	0x3a40225c	0.00073293387
36	0x3a3c31d5	0.00071790564
37	0x3a4027e2	0.0007330162
38	0x3a3dab9e	0.0007235351
39	0x00000000	0.0
40	0x3a3d389e	0.00072182145
41	0x3a3d0ab8	0.0007211375
42	0x3a3ff315	0.0007322294
43	0x3a40b602	0.000735134
44	0x3a40c08b	0.000735291
45	0x3a2ffbb6	0.0006713228
46	0x3a405d36	0.0007338108
47	0x3933d25a	0.00017149132
48	0x3a3fedda	0.00073215144
49	0x3a3f6256	0.0007300725
50	0x3a3ff6de	0.0007322858
51	0x00000000	0.0
52	0x3a4052c2	0.00073365506
53	0x3a3f2b63	0.0007292537
54	0x00000000	0.0
55	0x00000000	0.0
56	0x359956b4	1.1424622e-06
57	0x3a3edc64	0.00072807656
58	0x3a40a374	0.0007348575
59	0x3a40e0c4	0.00073577114
60	0x3a40b338	0.00073509244
61	0x00000000	0.0
62	0x3a408ee4	0.0007345511
63	0x3a40c1fe	0.0007353126

actor_sigma.2.weight f4 [3, 64]
0	0x3a9ce677	0.0011970539
1	0x3a9d9bef	0.0012024621
2	0x3a9ae461	0.001181733
3	0x3a9d1b53	0.0011986293
4	0x3a9d8053	0.0012016393
5	0x3a9d51be	0.001200251
6	0x3a9d5dd4	0.0012006112
7	0x3a9c8545	0.0011941573
8	0x3a9d29cf	0.0011990609
9	0x3a9c9b96	0.0011948224
10	0x3a96cdbc	0.0011505405
11	0x3a9d390a	0.0011995148
12	0x3a9d54e0	0.0012003444
13	0x3a9d7e51	0.0012015795
14	0x3a9d2123	0.0011988025
15	0x3a9db88d	0.001203315
16	0x00000000	0.0
17	0x3a9d51cf	0.001200253
18	0x3a9d17ca	0.0011985239
19	0x3a9b951c	0.001187
20	0x3a9d4eec	0.001200167
21	0x3a9c3f8e	0.0011920796
22	0x3a9d5cb9	0.0012005783
23	0x3a9d6167	0.0012007178
24	0x3a9d372a	0.001199459
25	0x39014cb8	0.00012330979
26	0x3a9d17bf	0.0011985226
27	0x3a9d2d5b	0.0011991666
28	0x3a9d0eab	0.0011982521
29	0x3a9da01e	0.0012025868
30	0x3a9cc55c	0.0011960673
31	0x3a9d608a	0.001200692
32	0x3a9d3a32	0.0011995493
33	0x3a9c7446	0.0011936508
34	0x3a9d5922	0.0012004713
35	0x3a9d7e57	0.0012015802
36	0x3a9c857b	0.0011941636
37	0x3a9d2108	0.0011987993
38	0x3a9d8d0a	0.0012020182
39	0x00000000	0.0
40	0x3a9d8bee	0.0012019852
41	0x3a9d6568	0.0012008371
42	0x3a9dbeb8	0.0012034988
43	0x3a9d2567	0.0011989296
44	0x3a9cc027	0.0011959121
45	0x3a93ebb8	0.001128546
46	0x3a9d92d1	0.0012021904
47	0x39ab4f0a	0.0003267455
48	0x3a9d8569	0.0012017909
49	0x3a9da216	0.0012026455
50	0x3a9d5200	0.0012002587
51	0x00000000	0.0
52	0x3a9d35ee	0.0011994222
53	0x3a9da844	0.0012028296
54	0x00000000	0.0
55	0x00000000	0.0
56	0x39550468	0.00020314904
57	0x3a9d2d02	0.0011991563
58	0x3a9d724f	0.0012012216
59	0x3a9ce5f0	0.0011970382
60	0x3a9d87c0	0.0012018606
61	0x00000000	0.0
62	0x3a96a202	0.0011492374
63	0x3a9d0f5c	0.0011982727
64	0x3a9ce354	0.0011969605
65	0x3a9dabdb	0.0012029366
66	0x3a9ac8aa	0.001180907
67	0x3a9cf2c7	0.0011974209
68	0x3a9d9f36	0.0012025598
69	0x3a9d4ae4	0.0012000469
70	0x3a9d7658	0.0012013419
71	0x3a9c46ec	0.0011922992
72	0x3a9d3678	0.0011994382
73	0x3a9ccaff	0.0011962353
74	0x3a95fdec	0.0011443472
75	0x3a9d5386	0.0012003041
76	0x3a9d4467	0.0011998535
77	0x3a9d7852	0.0012014008
78	0x3a9d20f6	0.0011987973
79	0x3a9db088	0.001203076
80	0x00000000	0.0
81	0x3a9d5173	0.0012002423
82	0x3a9d3ec8	0.001199686
83	0x3a9b5878	0.0011851927
84	0x3a9d6ff6	0.0012011516
85	0x3a9c045e	0.0011903157
86	0x3a9d3d24	0.0011996371
87	0x3a9d5b82	0.0012005421
88	0x3a9d3e45	0.0011996707
89	0x39014cb8	0.00012330979
90	0x3a9d24ea	0.0011989151
91	0x3a9d3790	0.0011994708
92	0x3a9d1255	0.0011983613
93	0x3a9da199	0.0012026309
94	0x3a9ca4fe	0.0011951027
95	0x3a9d4f4a	0.0012001779
96	0x3a9d33b0	0.0011993553
97	0x3a9c6fd7	0.0011935186
98	0x3a9d578c	0.001200424
99	0x3a9d643e	0.0012008024
100	0x3a9cbb1a	0.0011957616
101	0x3a9d237a	0.0011988722
102	0x3a9da91d	0.0012028549
103	0x00000000	0.0
104	0x3a9d968d	0.0012023017
105	0x3a9d8026	0.0012016341
106	0x3a9dbd4a	0.0012034562
107	0x3a9d11cc	0.0011983453
108	0x3a9cd091	0.0011964013
109	0x3a966081	0.0011472852
110	0x3a9d8e0c	0.0012020483
111	0x39ab9594	0.00032727106
112	0x3a9d7b70	0.0012014937
113	0x3a9da5c8	0.0012027556
114	0x3a9d162c	0.0011984757
115	0x00000000	0.0
116	0x3a9c3f73	0.0011920765
117	0x3a9d7ffb	0.001201629
118	0x00000000	0.0
119	0x00000000	0.0
120	0x39550468	0.00020314904
121	0x3a9d14eb	0.0011984383
122	0x3a9d7617	0.0012013343
123	0x3a9cbc04	0.0011957888
124	0x3a9d7b44	0.0012014885
125	0x00000000	0.0
126	0x3a95c59d	0.0011426691
127	0x3a9cff55	0.001197795
128	0x3a9cf21e	0.0011974012
129	0x3a9da522	0.0012027363
130	0x3a9ad0b1	0.0011811462
131	0x3a9cc07d	0.0011959221
132	0x3a9d7d25	0.0012015445
133	0x3a9d57c8	0.001200431
134	0x3a9d459f	0.0011998898
135	0x3a9c567c	0.001192763
136	0x3a9d2a6e	0.0011990794
137	0x3a9c6018	0.0011930494
138	0x3a96b454	0.0011497834
139	0x3a9d39d9	0.0011995389
140	0x3a9d2b5d	0.0011991073
141	0x3a9d8cb9	0.0012020088
142	0x3a9d3132	0.0011992811
143	0x3a9db302	0.0012031498
144	0x00000000	0.0
145	0x3a9d4078	0.0011997363
146	0x3a9d0a12	0.0011981151
147	0x3a9ba17c	0.0011873688
148	0x3a9d3f07	0.0011996933
149	0x3a9c5ab3	0.0011928886
150	0x3a9d5e51	0.0012006258
151	0x3a9d5ee2	0.0012006427
152	0x3a9d37f5	0.0011994826
153	0x39014cb8	0.00012330979
154	0x3a9d177d	0.001198515
155	0x3a9d2712	0.0011989793
156	0x3a9cff42	0.0011977928
157	0x3a9da6fa	0.0012027912
158	0x3a9cb117	0.0011954632
159	0x3a9d5576	0.0012003619
160	0x3a9d3147	0.0011992835
161	0x3a9c8b7a	0.0011943423
162	0x3a9d473e	0.0011999381
163	0x3a9d78ce	0.0012014152
164	0x3a9c7bce	0.0011938752
165	0x3a9d0cee	0.0011982003
166	0x3a9d888a	0.0012018841
167	0x00000000	0.0
168	0x3a9d9ea5	0.0012025429
169	0x3a9d2ee4	0.0011992124
170	0x3a9dbd5f	0.0012034586
171	0x3a9d1c22	0.0011986534
172	0x3a9cbab0	0.0011957493
173	0x3a934f46	0.0011238835
174	0x3a9d8634	0.0012018145
175	0x39ab99f2	0.0003273036
176	0x3a9d7a00	0.0012014508
177	0x3a9da5db	0.0012027578
178	0x3a9d6af2	0.0012010022
179	0x00000000	0.0
180	0x3a9cf891	0.0011975934
181	0x3a9d9c9a	0.001202482
182	0x00000000	0.0
183	0x00000000	0.0
184	0x39550468	0.00020314904
185	0x3a9d6a3c	0.001200981
186	0x3a9d60b3	0.0012006968
187	0x3a9cdd70	0.0011967849
188	0x3a9d83ab	0.001201739
189	0x00000000	0.0
190	0x3a974065	0.0011539577
191	0x3a9cfd26	0.00119773

actor_sigma.2.bias f4 [3]
0	0xbf7fb175	-0.9988015
1	0xbf7fb179	-0.99880177
2	0xbf7fb17a	-0.9988018
