scripts/model_ep10.pth (torch, 540962 bytes, 45 tensors)

shared_layers.0.weight f4 [128, 13]
-0.14396213 -0.1613213 -0.16571806 -0.1480664 0.20140745 -0.12513225 0.18435025 0.20816264
-0.02271311 -0.15125535 0.10917097 -0.1748217 -0.06491311 0.16394247 0.07116892 0.054689366
0.06800256 0.06267604 -0.053079255 0.0040210653 -0.02138826 -0.12986898 -0.12850143 0.05621922
-0.13917427 -0.16722536 -0.07399656 -0.20544013 0.081033014 0.0038937132 -0.05724121 -0.0055802222
0.19281188 -0.11347616 -0.15683259 0.060421277 0.15850914 0.032011822 -0.0055052782 0.09718361
0.07004179 -0.04388348 0.04810032 -0.09345361 -0.077294156 0.050320745 -0.09590031 -0.16972771
-0.0060679414 -0.0895849 -0.13904639 0.1569563 0.21533899 -0.011850834 -0.036386896 -0.06750568
-0.19484954 0.1841804 -0.16438222 0.11791544 -0.11172379 -0.08174586 0.10708668 -0.16765127
0.1575002 -0.16438483 -0.03473162 -0.06882424 0.081355795 -0.1382176 -0.08063508 0.045560755
0.001896017 -0.04502966 0.009984682 -0.14958523 -0.20428273 0.1288997 0.16177763 0.14126211
0.15203051 -0.119380936 0.07044618 0.20651366 -0.1771059 -0.123107344 0.019075895 -0.024597023
0.14806984 0.11348879 0.14601323 0.102063045 0.047776166 0.07917361 0.010153907 0.13164756
-0.11989548 0.10048481 0.0043273033 0.09516625 -0.104902156 -0.11252822 0.08064055 -0.15403014
-0.10506666 0.19010364 -0.11272757 0.079902686 0.043351427 -0.17254639 -0.15743665 -0.18437545
0.04530314 0.08471868 0.18705273 0.1317099 -0.09342801 -0.17417964 -0.13932653 -0.08350272
-0.037934285 -0.17721091 -0.072821535 -0.06114495 -0.20416908 0.18486004 0.2036721 -0.10495602
-0.1480575 0.15701938 0.05985377 -0.08716438 0.02022156 -0.1592858 0.041032765 -0.029480902
0.004076586 0.16608901 0.09761596 -0.13086188 -0.07571052 -0.06360425 -0.1507153 -0.112173855
-0.04957066 0.13856937 -0.12601075 0.1824798 -0.0009805578 -0.18067667 -0.18587211 0.009020103
-0.19500089 0.019824574 0.021793997 -0.06277188 -0.049461346 0.04280601 0.18123497 0.060759082
0.018244267 -0.03494701 -0.046658404 0.062343646 0.18393931 0.0966021 -0.1196109 0.18531378
-0.14057061 -0.013504571 0.20923562 0.14453433 -0.1881425 0.01173706 0.000179425 -0.024395125
-0.075571984 0.10016574 -0.051721822 0.15910202 -0.006743004 0.1448783 -0.07696703 -0.11707153
-0.18172565 0.035517838 -0.026580764 -0.17654316 0.12446432 -0.19054571 0.21497203 -0.12733123
0.05595498 0.15577872 0.16660658 -0.067193866 -0.06758299 -0.04613347 0.12661421 0.05420361
-0.20481023 0.147152 -0.08296406 -0.01919648 0.1080252 0.06885412 0.09171395 -0.17361212
-0.087949984 -0.06668027 -0.10119346 0.06616639 0.108537026 0.04716177 0.12948306 -0.20121424
0.19941083 -0.14847608 -0.13601133 -0.11743607 0.16621225 0.01746077 -0.035401206 -0.021579104
-0.06409874 -0.21086168 0.19190364 0.18566066 -0.2020463 -0.1963843 0.12506235 -0.112631686
0.061479826 -0.12995206 0.08189571 0.082989976 0.042317167 -0.17294344 0.055453833 -0.19796708
-0.03491071 0.112911984 -0.13151887 0.02857013 -0.04202463 0.13810797 -0.04453489 0.15513527
0.059004348 0.07465463 0.027927304 0.08523025 0.18355672 0.030510401 -0.069946416 -0.045261808
00000000: cf6a 13be 6931 25be ffb1 29be b89e 17be
00000010: c13d 4e3e ab22 00be 50c6 3c3e 9628 553e
00000020: d810 babc afe2 1abe 0895 df3d 7604 33be
00000030: 2af1 84bd 89e0 273e 03c1 913d f501 603d
00000040: ed44 8b3d 4c5c 803d a269 59bd 24c3 833b
00000050: 6f36 afbc 60fc 04be e195 03be 2046 663d
00000060: b383 0ebe 203d 2bbe 828b 97bd e65e 52be
00000070: a3f4 a53d ab2d 7f3b c275 6abd 4cda b6bb
00000080: 7a70 453e 3066 e8bd b998 20be 4d7c 773d
00000090: 3850 223e d41e 033d 9f65 b4bb 3308 c73d
000000a0: 1272 8f3d 2abf 33bd d704 453d 9b64 bfbd
000000b0: 664c 9ebd 201d 4e3d 6267 c4bd 1acd 2dbe
000000c0: 95d5 c6bb 4a78 b7bd 2d62 0ebe 27b9 203e
000000d0: d381 5c3e 002a 42bc 6d0a 15bd 6b40 8abd
000000e0: a386 47be c999 3c3e d053 28be a67d f13d
000000f0: 71cf e4bd 606a a7bd 4350 db3d c6ac 2bbe
00000100: bc47 213e 7f54 28be be42 0ebd b9f3 8cbd
00000110: de9d a63d ea88 0dbe 0124 a5bd ea9d 3a3d
00000120: c683 f83a 0571 38bd cb96 233c df2c 19be
00000130: 7e2f 51be 48fe 033e 09a9 253e 04a7 103e
00000140: e3ad 1b3e fe7d f4bd 1646 903d 5178 533e
00000150: 405b 35be b41f fcbd 0d45 9c3c b27f c9bc
00000160: 9f9f 173e d06c e83d 7e84 153e 6e06 d13d
00000170: f1b0 433d c625 a23d 935c 263c 9ece 063e
00000180: c38b f5bd fbca cd3d 0dcc 8d3b 86e6 c23d
00000190: f1d6 d6bd 3275 e6bd df26 a53d 14ba 1dbe
000001a0: 302d d7bd 87aa 423e b6dd e6bd 05a4 a33d
000001b0: 4491 313d 00b0 30be 1337 21be ebcc 3cbe
000001c0: c98f 393d fd80 ad3d c08a 3f3e f6de 063e
000001d0: 2f57 bfbd 265c 32be 9dab 0ebe 7903 abbd
000001e0: fb60 1bbd c776 35be 7523 95bd 2173 7abd
000001f0: b311 51be f34b 3d3e 6b8f 503e 2ff3 d6bd
00000200: 639c 17be b0c9 203e 3a29 753d 3d83 b2bd
00000210: afa7 a53c d11b 23be f911 283d ef81 f1bc
00000220: e294 853b 3d13 2a3e e0ea c73d a800 06be
00000230: 1e0e 9bbd f242 82bd 1d55 1abe 68bb e5bd
00000240: 9b0a 4bbd 21e5 0d3e f608 01be fcdb 3a3e
00000250: 0f86 80ba 4e03 39be 4255 3ebe 0ec9 133c
00000260: 50ae 47be 2567 a23c 5389 b23c 8b8e 80bd
00000270: fb97 4abd 5b55 2f3d a995 393e 84de 783d
00000280: 0075 953c 9924 0fbd e21c 3fbd 0d5c 7f3d
00000290: 965a 3c3e 52d7 c53d 8ff6 f4bd e5c2 3d3e
000002a0: bef1 0fbe 4742 5dbc dd41 563e cf00 143e
000002b0: 6da8 40be cc4c 403c 0824 3c39 49d8 c7bc
000002c0: 7cc5 9abd b223 cd3d 43da 53bd a4eb 223e
000002d0: 6bf4 dcbb fa5a 143e e4a0 9dbd 33c3 efbd
000002e0: 4a16 3abe 277b 113d e7bf d9bc bbc7 34be
000002f0: 26e7 fe3d 6a1e 43be a121 5c3e 1e63 02be
00000300: 0d31 653d 7584 1f3e ea9a 2a3e f09c 89bd
00000310: f368 8abd 73f6 3cbd 28a7 013e 9b04 5e3d
00000320: c6b9 51be 04af 163e 10e9 a9bd f041 9dbc
00000330: 513c dd3d 6403 8d3d 86d4 bb3d 60c7 31be
00000340: 1f1f b4bd aa8f 88bd 843e cfbd 3f82 873d
00000350: a948 de3d b32c 413d 3597 043e 1b0b 4ebe
00000360: 5a32 4c3e 1d0a 18be 8e46 0bbe 5382 f0bd
00000370: 8b33 2a3e e409 8f3c db00 11bd a9c6 b0bc
00000380: 3346 83bd 20ec 57be 6382 443e d41d 3e3e
00000390: 3ae5 4ebe f718 49be 5810 003e 71ab e6bd
000003a0: 45d2 7b3d 2712 05be f0b8 a73d a6f6 a93d
000003b0: c454 2d3d 1618 31be 8f23 633d e2b7 4abe
000003c0: 88fe 0ebd 663e e73d e2ac 06be e80b ea3c
000003d0: 0522 2cbd 2d6c 0d3e 386a 36bd c8db 1e3e
000003e0: 8bae 713d 87e4 983d cdc7 e43c 338d ae3d
000003f0: 4bf6 3b3e f3f0 f93c 1140 8fbd 7264 39bd

shared_layers.0.bias f4 [128]
-0.004526243 0.0110602155 -0.0060540508 0.011025632 0.009679044 0.010178778 0.011302342 -0.010057988
-0.010898643 0.0049232044 0.006342628 0.008816938 0.0076694917 0.0080788685 0.012564554 -0.007519463
0.009080314 0.0064246794 -0.0023009996 -0.010159667 0.0012923287 0.011732061 0.010392374 0.009557813
0.009297305 0.008443703 0.008533525 -0.0074024466 0.01351661 0.013522947 0.002288306 -0.003980069
0.011925469 0.01076965 0.008169199 0.01055281 0.0105719585 0.013759282 -0.0055324435 0.01172956
0.011068619 0.010821985 -0.007915313 0.01269953 0.008705613 -0.005794521 -0.0068379003 0.011189136
0.0005367134 -0.008259104 0.011016005 0.009448548 0.010642752 -0.008377459 0.004951224 0.009164285
0.011091853 0.0035225905 0.001138252 0.012227723 0.006901349 -0.008275219 -0.001831506 0.010490567
-0.0056217443 0.0025216378 0.013072329 -0.011973496 0.002244199 0.013052988 0.007049667 0.013246825
-0.0016001281 0.00016030768 0.009322228 -0.0071066143 -0.0016977554 -0.00981063 0.012337057 -0.0063900137
-0.0028513132 0.013003447 -0.00038146137 0.012885524 0.0014100919 -0.0047602216 -0.0078041623 0.009618341
-0.003204183 0.0060218973 0.008431633 0.012644028 -0.0013683769 0.010764029 0.007858057 -0.010774597
0.0043723676 0.013599306 0.009560626 0.011368657 0.0041790134 0.0015990013 0.0024526138 0.008597912
-0.0073821484 -0.0011639151 0.004599226 -0.008219892 0.004204434 -0.004737755 -0.0023923062 0.008097471
-0.002481041 0.011066105 -0.003213091 0.012188297 0.0033758844 -0.0048221336 -0.010555963 0.007219081
-0.0040620402 -0.0051497933 -0.003782624 -0.009527205 0.012942419 0.0056836917 0.0074342038 0.01212291
00000000: e150 94bb e835 353c 0f61 c6bb daa4 343c
00000010: da94 1e3c e4c4 263c 752d 393c 42ca 24bc
00000020: 3990 32bc d552 a13b d2d5 cf3b eb74 103c
00000030: 5c50 fb3b 3b5d 043c 8fdb 4d3c d465 f6bb
00000040: 99c5 143c 1e86 d23b 5ecc 16bb bb74 26bc
00000050: 5b63 a93a d537 403c c744 2a3c 6098 1c3c
00000060: b953 183c 7557 0a3c 33d0 0b3c 3990 f2bb
00000070: c574 5d3c 5a8f 5d3c 67f7 153b 3d6b 82bb
00000080: 0b63 433c 3073 303c 1bd8 053c b1e5 2c3c
00000090: 0236 2d3c 9d6e 613c 8049 b5bb 572d 403c
000000a0: 2759 353c b24e 313c 3baf 01bc b111 503c
000000b0: fda1 0e3c f7df bdbb 7710 e0bb a352 373c
000000c0: 3ab2 0c3a 3151 07bc 797c 343c 15ce 1a3c
000000d0: f05e 2e3c 9c41 09bc e13d a23b cc25 163c
000000e0: 9aba 353c 43db 663b 6631 953a ca56 483c
000000f0: b624 e23b c994 07bc 250f f0ba a1e0 2b3c
00000100: 9c36 b8bb 1042 253b 522d 563c 7b2c 44bc
00000110: 6913 133b 33dc 553c e500 e73b 3609 593c
00000120: 64bb d1ba 4418 2839 42bc 183c 9ade e8bb
00000130: 3887 deba c4bc 20bc 5e21 4a3c 5263 d1bb
00000140: 19dd 3abb 690c 553c e1fe c7b9 ce1d 533c
00000150: d5d2 b83a a2fb 9bbb 0fba ffbb 3f96 1d3c
00000160: 45fd 51bb 5653 c53b d524 0a3c e628 4f3c
00000170: 1c5b b3ba 9c5b 303c 14bf 003c ef87 30bc
00000180: 1446 8f3b a0cf 5e3c 2ca4 1c3c 9b43 3a3c
00000190: 1bf0 883b 9595 d13a 08bc 203b 42de 0c3c
000001a0: f3e5 f1bb 838e 98ba 1bb5 963b baac 06bc
000001b0: 59c5 893b 2b3f 9bbb 3dc8 1cbb 41ab 043c
000001c0: f698 22bb 9c4e 353c b992 52bb 6cb1 473c
000001d0: f13d 5d3b fd02 9ebb ebf2 2cbc 0a8e ec3b
000001e0: dd1a 85bb 99bf a8bb e6e5 77bb fe17 1cbc
000001f0: 710c 543c 433e ba3b 9f9a f33b 2b9f 463c

shared_layers.2.weight f4 [128, 128]
-0.023328057 -0.049562953 -0.10555104 0.034265526 -0.1386577 -0.0041370303 0.02291186 -0.1301184
-0.026628796 -0.016692322 0.03257798 0.11334339 -0.13214344 0.007853256 -0.14478801 -0.125079
-0.01840892 0.00089026254 -0.0023762116 -0.11466015 0.08162742 -0.042918257 -0.07193525 0.017353272
-0.08783816 0.06404435 0.010821782 0.13735802 -0.08321711 0.0146988025 -0.13021825 -0.13629544
0.0087366095 0.07225311 -0.05736395 0.104947366 0.051850453 0.043815173 -0.13815272 0.025818592
0.13564606 -0.01082447 -0.0884723 0.14959586 0.052908562 -0.059791066 0.022237694 -0.017825786
0.11495797 -0.08907746 -0.012201607 0.08633238 0.07979026 0.116444476 0.030237269 -0.025522698
-0.041629005 -0.026724257 -0.08534755 -0.10426707 -0.03278152 -0.048391275 -0.09002939 0.10294176
0.039650593 -0.10857269 -0.050384976 -0.0410112 0.1279025 0.15548757 0.05579196 -0.05108164
-0.118259974 -0.005864357 0.09463887 -0.029357936 0.13898559 0.15428498 -0.09524495 0.03350397
-0.017124793 -0.01411819 0.15564853 0.14784259 -0.0832093 -0.11186992 -0.039812338 0.15891136
0.10620159 0.07425786 -0.00046355888 -0.030962516 -0.09262466 0.074183755 -0.13594331 -0.0025481815
-0.07341833 -0.010536508 0.0019561828 0.05943594 0.15445587 0.07573134 0.13938834 0.0986637
0.10065822 0.15834655 -0.08189708 0.10435679 -0.066864185 0.062639385 -0.019159393 0.018076206
-0.022860648 -0.03773187 -0.0625717 0.1101711 -0.08704782 -0.12936813 0.13220264 -0.041061845
0.034643207 -0.06506306 -0.04656895 0.07677773 -0.06370945 -0.0105059715 0.05064762 0.076606184
0.12720653 -0.08121892 -0.095938005 0.046732463 0.082695454 -0.02866419 0.053665653 0.036410924
0.0008818333 0.15190649 0.019103136 -0.08183335 0.10043779 -0.0856477 0.019501163 0.08849648
0.031545933 -0.036174253 0.04186084 0.09681805 0.07781352 -0.016297862 -0.13833383 0.094383925
0.074616335 -0.04110508 0.09635436 0.08600978 -0.13338457 0.022935681 0.05094084 -0.0068628094
-0.0061308434 0.033882983 0.025056168 0.07987559 0.05516094 -0.010738527 0.15356758 0.009152174
0.06616487 0.108903214 -0.13399017 0.05261948 -0.052601755 -0.13800168 -0.07509596 0.0036436776
0.003259805 0.046458825 -0.10673956 -0.049842995 0.045114063 -0.09820703 0.034325287 0.07858994
-0.055043694 0.011013453 0.026036683 -0.09696058 0.06571803 -0.14141543 0.00012766215 0.12224891
0.022818234 -0.036013618 0.12661311 -0.1396181 0.033345886 -0.029258134 0.12577206 0.085419066
0.07940999 0.004069284 -0.0860125 -0.015202658 -0.02709932 0.16355714 0.054457303 0.08881259
-0.14420392 0.07575438 0.1257331 0.046533555 0.064831935 -0.05779159 0.08393492 0.1425242
-0.06348452 0.016520247 0.07995727 0.030239604 0.13485357 0.10932171 -0.13374862 0.111351386
0.044974983 0.09451405 -0.109431356 -0.015965553 -0.14059836 0.10343176 0.024663024 -0.068441
-0.025269197 -0.008886122 -0.103178054 0.13482884 -0.048728418 0.15442474 -0.11343112 -0.056667652
-0.015184562 -0.07181364 0.15098912 0.006680804 0.006854736 0.021366814 -0.0976074 0.0340491
0.0049984413 -0.058575347 -0.04595429 -0.10201638 0.005099732 -0.1291147 -0.052549325 -0.06385495
00000000: 7b1a bfbc 8602 4bbd 252b d8bd 025a 0c3d
00000010: 49fc 0dbe ed8f 87bb a7b1 bb3c c23d 05be
00000020: a224 dabc 56be 88bc 7d70 053d 9420 e83d
00000030: 9c50 07be f1aa 003c 4f43 14be b614 00be
00000040: 4ece 96bc 8260 693a 37ba 1bbb f1d2 eabd
00000050: 472c a73d 0ecb 2fbd ca52 93bd 7328 8e3c
00000060: 7ee4 b3bd af29 833d d84d 313c 95a7 0c3e
00000070: bb6d aabd 3fd3 703c ef57 05be 0891 0bbe
00000080: ff23 0f3c 70f9 933d 76f6 6abd a5ee d63d
00000090: 2461 543d 8a77 333d e877 0dbe 8381 d33c
000000a0: cde6 0a3e 1e59 31bc f730 b5bd a82f 193e
000000b0: a6b6 583d 7ae7 74bd d32b b63c 6207 92bc
000000c0: 166f eb3d 3e6e b6bd 40e9 47bc 08cf b03d
000000d0: 1369 a33d 717a ee3d 26b4 f73c fa14 d1bc
000000e0: 2d83 2abd d4ec dabc b2ca aebd f989 d5bd
000000f0: ea45 06bd ee35 46bd 5461 b8bd 21d3 d23d
00000100: a968 223d 5c5b debd 7a60 4ebd 5cfb 27bd
00000110: dff8 023e 2238 1f3e 1c86 643d fb3a 51bd
00000120: 4932 f2bd cb29 c0bb 06d2 c13d 0e80 f0bc
00000130: 3d52 0e3e e2fc 1d3e c90f c3bd 753b 093d
00000140: 4b49 8cbc fb4f 67bc 5462 1f3e 0c64 173e
00000150: a369 aabd 0e1c e5bd 4312 23bd a9b9 223e
00000160: 3880 d93d 8114 983d d209 f3b9 1aa5 fdbc
00000170: ffb1 bdbd a7ed 973d b934 0bbe 64ff 26bb
00000180: 595c 96bd 51a1 2cbc 4d33 003b 1a73 733d
00000190: ae29 1e3e 0819 9b3d d1bb 0e3e 3210 ca3d
000001a0: e625 ce3d 9925 223e a8b9 a7bd 03b9 d53d
000001b0: 17f0 88bd 1449 803d 29f4 9cbc 8d14 943c
000001c0: 4146 bbbc bc8c 1abd 9725 80bd 63a1 e13d
000001d0: 2146 b2bd 1479 04be 2160 073e 7730 28bd
000001e0: 09e6 0d3d c83f 85bd 15bf 3ebd a43d 9d3d
000001f0: 1a7a 82bd 3d21 2cbc e173 4f3d b4e3 9c3d
00000200: 6e42 023e 1b56 a6bd 257b c4bd 8a6a 3f3d
00000210: 3c5c a93d 2ad1 eabc 84d0 5b3d 9f23 153d
00000220: d52a 673a 608d 1b3e 2e7e 9c3c 3e98 a7bd
00000230: 54b2 cd3d 1068 afbd e7c0 9f3c a43d b53d
00000240: 4f36 013d 742b 14bd 4676 2b3d 8b48 c63d
00000250: b25c 9f3d 1883 85bc 62a7 0dbe 5c4c c13d
00000260: 73d0 983d cd5d 28bd 6f55 c53d e525 b03d
00000270: f795 08be 9ce3 bb3c 58a7 503d 6be1 e0bb
00000280: 3ee5 c8bb e2c8 0a3d 9842 cd3c d095 a33d
00000290: 70f0 613d a6f0 2fbc d240 1d3e 00f3 153c
000002a0: 7381 873d a608 df3d b834 09be 8687 573d
000002b0: f074 57bd 5050 0dbe e9cb 99bd c4ca 6e3b
000002c0: 74a2 553b 9c4b 3e3d 459a dabd 2b28 4cbd
000002d0: 86c9 383d c420 c9bd ac98 0c3d c3f3 a03d
000002e0: 7f75 61bd c571 343c e24a d53c 4593 c6bd
000002f0: 2d97 863d 35cf 10be 0cdd 0539 a35d fa3d
00000300: 4eed ba3c 0483 13bd dea6 013e 0cf8 0ebe
00000310: b295 083d c1ae efbc 64ca 003e 31f0 ae3d
00000320: b4a1 a23d a157 853b 5227 b0bd 9214 79bc
00000330: 65ff ddbc 867b 273e 9f0e 5f3d 60e3 b53d
00000340: 31aa 13be 1d25 9b3d 2ec0 003e f899 3e3d
00000350: 9bc6 843d e0b6 6cbd 12e6 ab3d ddf1 113e
00000360: 2c04 82bd 7855 873c a3c0 a33d 0cb9 f73c
00000370: 0e17 0a3e 10e4 df3d 66f5 08be 320c e43d
00000380: b037 383d 9590 c13d 8c1d e0bd 31ca 82bc
00000390: 04f9 0fbe 08d4 d33d 1c0a ca3c cc2a 8cbd
000003a0: 5901 cfbc 1997 11bc 044f d3bd 9210 0a3e
000003b0: 7397 47bd 8521 1e3e 934e e8bd 571c 68bd
000003c0: abc8 78bc 0813 93bd e49c 1a3e a5ea da3b
000003d0: b19d e03b 7509 af3c 63e6 c7bd 1277 0b3d
000003e0: f7c9 a33b b4ec 6fbd 913a 3cbd f7ed d0bd
000003f0: a71b a73b a536 04be f63d 57bd 62c6 82bd

shared_layers.2.bias f4 [128]
0.009191502 0.0084143 0.009761819 0.011010298 0.0101777455 0.010951512 -0.006020377 0.0
0.0 0.010786147 0.012363953 0.011393585 0.0043021706 -0.0027860298 0.0081333015 -0.006480652
0.009986935 0.0010473318 -0.006599419 0.012239054 -0.006068932 0.0074154045 0.00049998995 0.010224457
0.003824232 -0.005277144 -0.004110372 -0.0012160008 -0.0022213084 -0.0059083016 0.011682816 0.013108366
0.0031918338 0.0046920083 -0.008776161 0.008597091 0.002846749 0.010451885 0.0040902663 0.0020408498
0.011732814 0.012069869 -0.006210172 0.00477768 0.00085010944 -0.00572027 0.009716971 0.012459718
0.0062566544 0.0121701965 0.008222854 0.009469071 0.0 0.0 -0.0022014226 0.011753669
0.005118994 0.013088398 -0.0021524543 0.01240953 1.184133e-05 0.0029925383 0.008201543 0.013459252
0.008571498 -0.0042165904 0.009024401 0.007867893 -0.0003786055 -0.0065498212 0.01263796 -0.004240219
0.011763451 0.0058258437 0.0021699977 0.009925797 0.010880473 -0.0065179407 0.004869245 0.0034198465
0.010407146 -0.0042547076 -0.0032348523 0.0030574016 0.0036536113 0.008322672 -0.005177432 -0.008626756
-0.006063085 -0.007298141 -0.0015173955 0.0009040666 0.0061404 -0.007209464 0.0006610834 -0.005872103
-0.0024648376 -0.008825732 0.011148975 0.0016463434 -0.0066779545 -0.002411172 0.010967707 0.009999475
-0.0035032874 0.013773523 0.010932618 -0.008751204 0.0032782352 0.0025572758 0.0057174615 -0.0033515375
-0.007227584 0.0066896146 0.0048028557 0.011668639 0.00373315 -0.0025081888 0.009403972 0.009377905
-0.012914814 -0.0043361625 -0.005002818 -0.0032931336 -0.005239918 -0.0012109448 -0.007913874 0.00768859
00000000: f497 163c 22dc 093c 09f0 1f3c 8964 343c
00000010: 8fc0 263c f86d 333c 9546 c5bb 0000 0000
00000020: 0000 0000 61b8 303c 2d92 4a3c 29ac 3a3c
00000030: 39f9 8c3b d395 36bb 8a41 053c a65b d4bb
00000040: 3ea0 233c a046 893a f03f d8bb 5086 483c
00000050: e4dd c6bb ecfc f23b c211 033a 7b84 273c
00000060: f79f 7a3b e4eb acbb 4db0 86bb 3762 9fba
00000070: 5f93 11bb 6d9a c1bb 4869 3f3c 79c4 563c
00000080: 162e 513b 6bbf 993b e3c9 0fbc d0da 0c3c
00000090: 8690 3a3b 623e 2b3c a407 863b c7bf 053b
000000a0: fd3a 403c b3c0 453c b37e cbbb 168e 9c3b
000000b0: e1d9 5e3a 1a71 bbbb ee33 1f3c d823 4c3c
000000c0: 9f04 cd3b 8165 473c 26b9 063c 2a24 1b3c
000000d0: 0000 0000 0000 0000 be45 10bb 7692 403c
000000e0: 3cbd a73b b870 563c 3110 0dbb 5751 4b3c
000000f0: 20aa 4637 761e 443b c45f 063c 3284 5c3c
00000100: 786f 0c3c 532b 8abb 15db 133c 56e8 003c
00000110: 927f c6b9 e29f d6bb 720f 4f3c 89f1 8abb
00000120: 7dbb 403c b8e6 be3b 8536 0e3b cf9f 223c
00000130: 0344 323c 7394 d5bb 308e 9f3b 811f 603b
00000140: bc82 2a3c 136b 8bbb d1ff 53bb b05e 483b
00000150: 6d71 6f3b d15b 083c 73a7 a9bb 3d57 0dbc
00000160: d8ac c6bb 3e25 efbb 58e3 c6ba e2fe 6c3a
00000170: 6935 c93b 5e3d ecbb 8e4c 2d3a c56a c0bb
00000180: 1d89 21bb ce99 10bc 31aa 363c 1eca d73a
00000190: bed2 dabb c104 1ebb e6b1 333c d7d4 233c
000001a0: 6997 65bb 58aa 613c b91e 333c 3661 0fbc
000001b0: a9d7 563b f897 273b 8b59 bb3b 78a5 5bbb
000001c0: 5ed5 ecbb 8e34 db3b 4661 9d3b d22d 3f3c
000001d0: dda7 743b 6d60 24bb 1e13 1a3c c9a5 193c
000001e0: a898 53bc 5e16 8ebb aeee a3bb 9dd1 57bb
000001f0: 9eb3 abbb 91b8 9eba 32a9 01bc 91f0 fb3b

actor_mu.0.weight f4 [64, 128]
-0.13405837 -0.050009944 0.16639362 0.123032086 0.16178344 -0.023883821 -0.11549867 0.16133076
0.029229702 -0.07676856 -0.16224422 0.1754274 0.045241803 0.07653241 -0.1523443 0.109025925
-0.13130635 0.0642306 -0.079206064 0.027046308 0.07388748 -0.029755006 -0.17773291 -0.03140886
-0.040003918 0.05712333 -0.13583452 -0.012017908 0.0009319618 0.09458249 -0.027567295 -0.05778013
0.13868426 0.16196494 0.14705233 -0.014663261 -0.033827066 0.02804005 -0.06468389 0.110661514
-0.16220589 0.01733677 0.17170405 0.10152696 0.00096086436 -0.16972749 -0.13352536 -0.0124341585
0.04458715 0.04428989 0.014907911 0.065573104 0.15941301 0.05345866 0.047059417 0.03109292
0.05909463 -0.1452981 -0.015002625 0.14600411 -0.16789082 0.16596928 0.13483743 -0.019488076
-0.010049405 0.056346435 0.051668912 0.09069984 0.13051066 -0.025444906 -0.06399551 -0.15213269
-0.04492088 0.0043560616 -0.08664566 0.034865748 -0.008101932 0.12370549 -0.12456141 -0.056825634
-0.17644498 0.17094214 0.05200705 -0.034690395 0.08319237 -0.013231487 -0.069278054 0.032715935
-0.15139073 0.13637957 0.10370425 0.16484633 0.11643575 0.020425865 -0.03517234 -0.17140305
-0.05392147 0.14794396 -0.03276565 0.12191511 0.0022399595 0.1063679 -0.18173403 0.17021973
0.035520084 -0.0627145 0.112932436 0.14154802 0.077800505 -0.12166243 -0.011978775 0.078135446
0.15315755 0.12483201 0.01881657 -0.063718654 0.056633506 0.04822375 0.12760383 -0.13287275
0.13659501 0.09749489 -0.13519393 -0.13788188 -0.044496704 0.135314 -0.11040342 0.077614605
-0.12249674 0.081817456 0.040482257 0.016831882 0.13608934 0.10266599 -0.12613952 0.13526294
-0.16714302 -0.12577538 0.05895649 0.14067993 -0.135312 -0.06510305 -0.016907657 0.1746605
0.16440259 -0.09413424 -0.013886616 0.11955144 0.02184948 -0.061267283 -0.0984641 -0.11982799
0.0018021544 -0.09615683 0.14097358 0.09523046 -0.124290295 0.014436017 0.14421035 0.048217844
0.005049736 -0.03248122 -0.14774472 0.1259054 -0.0906962 0.13637123 -0.14256221 0.16108862
0.08778433 -0.15568702 -0.12411339 -0.0077393567 0.10664756 0.06796155 0.0008508712 -0.1000256
0.07074037 -0.03645015 -0.10689249 0.03017655 0.12185545 0.11395987 0.025814224 -0.10114893
0.14152066 0.16292179 -0.07592112 0.10873972 0.12189677 0.0009377304 0.14865275 0.12797011
-0.06907825 0.045175355 0.14604816 -0.14880969 0.09219554 0.010782636 0.078676865 0.16188142
-0.14524874 0.12744415 0.06724403 -0.1443357 -0.15354 0.016569464 -0.047230817 -0.07501818
0.15324187 0.02256629 0.004240473 0.0129783 0.07590841 -0.06956778 0.061222464 0.17740473
0.13819344 0.000118648604 -0.09280066 -0.06372582 0.061283354 0.010808552 0.049016334 -0.1151935
-0.13384865 0.08921624 -0.1642967 0.16793151 -0.1595754 0.0006835207 0.17117217 -0.07821659
0.16922191 -0.16489594 -0.13699137 0.0031698248 -0.00046978996 -0.11299796 -0.13828115 0.14004886
-0.020807741 0.17952617 -0.052156955 0.15972751 -0.08211608 -0.004304017 0.14487909 0.007647884
0.17799589 -0.0690392 0.12214024 0.033232078 0.0025407034 0.040281344 0.16513135 -0.09225007
00000000: 9946 09be 3ad7 4cbd 1763 2a3e 3ff8 fb3d
00000010: 8faa 253e 01a8 c3bc 918a ecbd e433 253e
00000020: 2173 ef3c d638 9dbd 5923 26be 3ea3 333e
00000030: 784f 393d 06bd 9c3d 2500 1cbe fc48 df3d
00000040: 2c75 06be 558b 833d ca36 a2bd 3890 dd3c
00000050: 5252 973d c5c0 f3bc 9eff 35be 94a6 00bd
00000060: 26db 23bd 27fa 693d 3418 0bbe c2e6 44bc
00000070: e64e 743a 77b4 c13d cfd4 e1bc dcaa 6cbd
00000080: 3f03 0e3e 23da 253e e394 163e 2d3e 70bc
00000090: 408e 0abd 3fb4 e53c fd78 84bd 81a2 e23d
000000a0: 4d19 26be d805 8e3c 30d3 2f3e 5eed cf3d
000000b0: 84e2 7b3a 0bcd 2dbe dfba 08be a4b8 4bbc
000000c0: 04a1 363d 5169 353d 5040 743c 314b 863d
000000d0: 2a3d 233e 78f7 5a3d 60c1 403d 94b6 fe3c
000000e0: 360d 723d 06c9 14be 92cd 75bc 1a82 153e
000000f0: 92eb 2bbe daf3 293e d312 0a3e 75a5 9fbc
00000100: 42a6 24bc 85cb 663d c8a2 533d d6c0 b93d
00000110: 96a4 053e d671 d0bc 1410 83bd acc8 1bbe
00000120: f5fe 37bd 4bbd 8e3b 4873 b1bd 63cf 0e3d
00000130: f7bd 04bc 4e59 fd3d 0d1a ffbd ffc1 68bd
00000140: fead 34be 750b 2f3e 5805 553d 8417 0ebd
00000150: c360 aa3d e1c8 58bc a7e1 8dbd 2501 063d
00000160: 2c06 1bbe 16a7 0b3e e562 d43d 7acd 283e
00000170: de75 ee3d 2554 a73c df10 10bd 4884 2fbe
00000180: c2dc 5cbd 9f7e 173e 4635 06bd a1ae f93d
00000190: 49cc 123b 6ad7 d93d 7c18 3abe 154e 2e3e
000001a0: 827d 113d 7670 80bd 1f49 e73d f7f1 103e
000001b0: df55 9f3d 272a f9bd a042 44bc 7a05 a03d
000001c0: 55d5 1c3e eda7 ff3d 3525 9a3c ed7e 82bd
000001d0: 89f8 673d 4486 453d 94aa 023e cb0f 08be
000001e0: 90df 0b3e 67ab c73d 4770 0abe e830 0dbe
000001f0: 2d42 36bd c18f 0a3e 301b e2bd 68f4 9e3d
00000200: 92df fabd e98f a73d b9d0 253d 04e3 893c
00000210: 015b 0b3e 8c42 d23d b82a 01be 5e82 0a3e
00000220: 8a27 2bbe 43cb 00be 5c7c 713d 660e 103e
00000230: 3b8f 0abe bf54 85bd ed81 8abc 34da 323e
00000240: 2759 283e 74c9 c0bd b084 63bc 63d7 f43d
00000250: aefd b23c 67f3 7abd 8ca7 c9bd 6168 f5bd
00000260: 4436 ec3a dfed c4bd 615b 103e 3008 c33d
00000270: e98b febd 0b85 6c3c e1ab 133e 1380 453d
00000280: 4178 a53b 070b 05bd 644a 17be 58ed 003e
00000290: eebe b9bd e6a4 0b3e d4fb 11be 6af4 243e
000002a0: 45c8 b33d 6b6c 1fbe 292f febd 6e9a fdbb
000002b0: 096a da3d 6d2f 8b3d 000d 5f3a 39da ccbd
000002c0: 54e0 903d c14c 15bd 73ea dabd d034 f73c
000002d0: 5a8f f93d cb63 e93d 5a78 d33c 2c27 cfbd
000002e0: cbea 103e f8d4 263e 887c 9bbd eeb2 de3d
000002f0: 04a5 f93d 06d2 753a 6d38 183e 990a 033e
00000300: e678 8dbd cb09 393d a68d 153e 9161 18be
00000310: 04d1 bc3d a7a9 303c 5621 a13d 3ec4 253e
00000320: 16bc 14be b880 023e 3db7 893d bdcc 13be
00000330: 9739 1dbe afbc 873c 1a75 41bd 22a3 99bd
00000340: 70eb 1c3e f1dc b83c aaf3 8a3b f0a2 543c
00000350: de75 9b3d 8d79 8ebd 68c4 7a3d 96a9 353e
00000360: 9582 0d3e fcd2 f838 460e bebd af82 82bd
00000370: 4104 7b3d 5a16 313c 5ac5 483d 92ea ebbd
00000380: 9f0f 09be 01b7 b63d 653d 28be 3df6 2b3e
00000390: bc67 23be 4c2e 333a c247 2f3e 0530 a0bd
000003a0: 8248 2d3e 7bda 28be 7747 0cbe d6bc 4f3b
000003b0: 244e f6b9 796b e7bd 9399 0dbe f868 0f3e
000003c0: ff74 aabc b5d5 373e 88a2 55bd 9c8f 233e
000003d0: 7a2c a8bd b608 8dbb 2f5b 143e 1a9b fa3b
000003e0: 8e44 363e 6d64 8dbd aa24 fa3d 5c1e 083d
000003f0: ee81 263b 0dfe 243d 3118 293e 9bed bcbd

actor_mu.0.bias f4 [64]
0.0010091153 0.005118098 0.0 -0.0054059047 -0.004986508 0.00012996387 -0.0007955677 -0.0042782472
0.003906784 0.0041886857 0.0015902013 0.0029757067 0.004343578 -0.007439609 0.0014376526 -0.0013073508
0.0024809097 0.002359447 -0.003006477 0.0 -0.0022210525 -0.00046018354 0.00036332416 -0.004761177
-0.0036237384 0.001943523 -0.0065305294 0.004639757 -0.0008636704 0.002047842 -0.0034748332 0.003969274
0.0014119099 -0.0031817057 -0.0021658044 -0.0014205336 0.0027241632 -0.002279556 0.0061801206 -0.0034385868
0.004054065 0.0007497855 0.010006587 -0.0041960482 -0.005309633 0.00031996376 -0.00042794447 -0.0011597319
0.004407301 -0.000472983 -0.0016254548 0.004671844 -0.0014082058 0.0042638322 -0.0024575177 -0.0038702115
0.0047862222 -0.0039027724 0.0014729914 -0.0026974413 -0.0028065257 0.0029747994 0.0037703752 0.006276588
00000000: 4a44 843a b8b5 a73b 0000 0000 0424 b1bb
00000010: dc65 a3bb e946 0839 a58d 50ba 8a30 8cbb
00000020: 7b04 803b 3e41 893b 4d6e d03a 1304 433b
00000030: 9354 8e3b f7c7 f3bb 9e6f bc3a 6a5b abba
00000040: c296 223b f4a0 1a3b 5008 45bb 0000 0000
00000050: 148f 11bb ca44 f1b9 8b7c be39 a603 9cbb
00000060: 3e7c 6dbb cfbd fe3a 0dfe d5bb 1a09 983b
00000070: f067 62ba 1635 063b 07ba 63bb af10 823b
00000080: d60f b93a 2a84 50bb 2bf0 0dbb 3331 baba
00000090: e087 323b 9a64 15bb 9c82 ca3b ea59 61bb
000000a0: f6d7 843b 418d 443a abf2 233c 017f 89bb
000000b0: 6efc adbb cfc0 a739 bc5d e0b9 2502 98ba
000000c0: 1f6b 903b b4fa f7b9 360d d5ba 4516 993b
000000d0: 8c93 b8ba 9eb7 8b3b 4e0e 21bb 60a3 7dbb
000000e0: bed5 9c3b a8c5 7fbb 6411 c13a 8ec7 30bb
000000f0: b0ed 37bb daf4 423b 6618 773b d6ab cd3b

actor_mu.2.weight f4 [3, 64]
-0.21529748 0.14225392 -0.03699817 -0.08926108 -0.24853301 0.12868159 -0.27664208 0.049129013
0.17247935 0.22721826 -0.0837645 0.075205564 -0.22578898 -0.2364961 0.00091517426 -0.0061848713
0.043334484 0.29546025 0.26700374 0.020107953 -0.07690439 0.051699582 0.025218057 -0.108471975
-0.2767678 0.2898121 -0.071183056 0.2486314 -0.14041878 0.095911264 -0.25473776 0.044020396
0.13610956 -0.14230806 -0.03775635 0.058207415 0.23357731 -0.12217299 0.27019954 -0.0028978805
0.057465117 -0.043097187 0.053438228 -0.092973 -0.25635216 0.076290056 -0.18704621 0.05697622
0.23327883 0.2857488 -0.10623255 0.24091002 0.16365297 0.2465712 -0.008230549 -0.26042563
0.10569807 -0.07357817 -0.14932898 0.21258242 -0.19797583 0.23080875 0.1873695 0.12173669
0.29191947 -0.01078632 -0.10938021 -0.20753822 0.09353894 -0.25777444 0.26674935 -0.22271286
0.21114334 0.18822083 0.014990568 0.12457223 0.16876078 0.18328728 0.1583418 0.26678473
0.25335804 0.10604912 0.16772778 -0.20477268 -0.021737456 -0.26234525 -0.060665637 -0.10968131
0.085494734 -0.056686852 -0.16610028 0.25180906 0.04318673 0.10826931 -0.072752334 0.09666121
-0.06940257 0.15209499 0.06206071 0.098370455 0.2839204 0.08524557 0.023073945 -0.20006277
0.18787998 -0.23164436 -0.04989897 -0.22024842 0.023553988 -0.24471818 0.11338409 -0.29702872
0.2867543 -0.038336758 -0.023119044 0.28575468 -0.19667399 -0.2451125 -0.20535195 -0.010186597
0.13313082 -0.11276003 -0.3009098 -0.042231414 0.109144434 0.038025867 0.27581275 -0.26857772
0.00056912913 -0.011762336 0.2912079 0.2882628 0.034445997 0.24614975 -0.03368963 -0.1652928
0.04833307 0.10059289 -0.09070993 -0.1765329 -0.27456856 0.19486073 0.11371306 0.18800837
-0.096546076 -0.16175656 0.22899017 0.16194592 -0.0060370816 -0.19805908 -0.11396625 0.09120427
-0.27320173 0.17742987 -0.07757302 -0.072236486 -0.20196788 -0.09795695 -0.05038096 -0.14095834
-0.09149952 0.15160921 -0.12415527 -0.010721195 0.20350903 0.029923178 0.032201175 0.22052728
-0.018799588 -0.291714 -0.18670322 0.16499652 -0.086167805 -0.075362235 0.21642292 0.16558425
-0.08349882 -0.07831379 0.16378553 -0.28590536 0.149462 0.17247291 -0.03487322 -0.23408942
-0.28433338 -0.19922371 -0.20168756 0.12999083 0.12222469 0.18768388 -0.00067344686 -0.25831535
00000000: f176 5cbe 03ab 113e 658b 17bd 83ce b6bd
00000010: 707f 7ebe 1bc5 033e 08a4 8dbe 813b 493d
00000020: 6d9e 303e e7ab 683e b98c abbd 6005 9a3d
00000030: 3a35 67be 092c 72be 4ee8 6f3a 76aa cabb
00000040: 807f 313d 9146 973e b7b4 883e 6fb9 a43c
00000050: 0c80 9dbd f1c2 533d 1996 ce3c 8e26 debd
00000060: 82b4 8dbe 4062 943e 6cc8 91bd 3b99 7e3e
00000070: f1c9 0fbe 206d c43d fd6c 82be bb4e 343d
00000080: 4e60 0b3e 34b9 11be 67a6 1abd e66a 6e3d
00000090: e42e 6f3e d535 fabd 9857 8a3e 5eea 3dbb
000000a0: 8b60 6b3d ad86 30bd 0be2 5a3d a168 bebd
000000b0: 9740 83be f63d 9c3d 0b89 3fbe e65f 693d
000000c0: a5e0 6e3e ab4d 923e 7490 d9bd 1eb1 763e
000000d0: a594 273e 297d 7c3e 6dd9 06bc 8256 85be
000000e0: 3b78 d83d 27b0 96bd b2e9 18be 35af 593e
000000f0: 2dba 4abe 2159 6c3e cadd 3f3e 1651 f93d
00000100: 7876 953e 1bb9 30bc bb02 e0bd e684 54be
00000110: 5891 bf3d 03fb 83be 5f93 883e d70e 64be
00000120: f635 583e f6bc 403e 009b 753c ba1f ff3d
00000130: a0cf 2c3e a9af 3b3e 5a24 223e 0298 883e
00000140: 25b8 813e 4830 d93d d5c0 2b3e eeaf 51be
00000150: c012 b2bc 1e52 86be 887c 78bd 98a0 e0bd
00000160: dd17 af3d 7930 68bd 3116 2abe 1eed 803e
00000170: 92e4 303d 4dbc dd3d 2dff 94bd 50f6 c53d
00000180: ef22 8ebd cabe 1b3e 5f33 7e3d 7376 c93d
00000190: 045e 913e 3b95 ae3d 9205 bd3c 41dd 4cbe
000001a0: 9c63 403e 2e34 6dbe dd62 4cbd cd88 61be
000001b0: 4bf4 c03c 6797 7abe eb35 e83d 2614 98be
000001c0: 76d1 923e 0107 1dbd 2664 bdbc 704e 923e
000001d0: e864 49be c5fe 7abe c847 52be afe5 26bc
000001e0: 7253 083e bbee e6bd d910 9abe d9fa 2cbd
000001f0: 1e87 df3d 03c1 1b3d 5437 8d3e 0583 89be
00000200: 9c31 153a d0b6 40bc 3419 953e 2f97 933e
00000210: 3f17 0d3d ae0e 7c3e 23fe 09bd 8442 29be
00000220: e6f8 453d a503 ce3d 21c6 b9bd 0ac5 34be
00000230: 4094 8cbe 9289 473e 65e2 e83d 4485 403e
00000240: f3b9 c5bd 83a3 25be 667c 6a3e 27d5 253e
00000250: b6d2 c5bb 00d0 4abe 2367 e9bd 4ec9 ba3d
00000260: 19e1 8bbe 2db0 353e 9ade 9ebd b9f0 93bd
00000270: abd0 4ebe a79d c8bd 445c 4ebd 6257 10be
00000280: 1a64 bbbd 723f 1b3e 1e45 febd f3a7 2fbc
00000290: ac64 503e 7421 f53c 61e5 033d e7d1 613e
000002a0: 9801 9abc 8a5b 95be 212f 3fbe d9f4 283e
000002b0: bf78 b0bd 8457 9abd f89d 5d3e eb8e 293e
000002c0: 6e01 abbd fb62 a0bd 65b7 273e 3062 92be
000002d0: 910c 193e bd9c 303e 39d7 0ebd 23b5 6fbe
000002e0: 2594 91be 4d01 4cbe 2f87 4ebe 511c 053e
000002f0: f050 fa3d 3430 403e 418a 30ba e941 84be

actor_mu.2.bias f4 [3]
0.006083476 0.0023027717 -0.00066132285
00000000: e557 c73b 19ea 163b a05c 2dba

actor_sigma.0.weight f4 [64, 128]
0.12759146 0.07407174 0.074011646 -0.07580931 0.10253745 -0.15692672 0.07122465 -0.1331192
-0.042233292 0.018819343 0.10475561 -0.13035634 0.05619688 -0.13719863 0.018928116 0.15326107
0.007323714 0.15667357 0.053685833 -0.06612669 0.08298397 0.022192894 0.15437463 -0.027257355
-0.016127113 0.03520847 -0.036368575 0.08469705 -0.17368685 0.009064683 0.06567619 0.0050774096
0.13951904 -0.12498744 0.14048715 0.12160826 0.041803204 -0.0675992 0.11778385 0.07508523
-0.029129628 -0.10529452 -0.12800047 -0.021846788 0.18134917 -0.098380595 -0.023719775 0.10829516
-0.036037497 -0.0752923 0.05465579 0.11894189 -0.029767223 -0.0041876477 0.15176314 0.05227241
0.05536254 0.05850132 0.08953208 -0.0355105 -0.1505526 0.03136525 0.037011433 -0.13257083
0.07470321 0.033435524 0.08833406 -0.028603457 -0.11366073 0.054838363 -0.08180041 0.049436532
0.079006135 0.07623154 0.06819884 -0.02335548 0.074777566 -0.08704682 -0.1421208 0.09841739
0.16506247 0.14738373 -0.10177989 -0.09953633 -0.095034316 0.11052943 0.036030486 -0.1534292
-0.01236577 -0.08893298 -0.10185455 0.16787784 0.15526605 0.16900209 0.09415129 -0.03294412
0.09236557 -0.06566492 0.021029046 -0.116775736 0.12508261 0.09206206 0.09589869 -0.0074864402
0.113819 0.16571167 0.06359905 0.12723127 -0.13550572 0.014753362 0.038542874 -0.13361229
0.036386076 -0.08104079 -0.044396855 0.02910553 -0.023843601 -0.11239469 0.12752658 0.094598144
-0.017574871 0.07714893 -0.07091529 0.10236801 -0.0866293 0.0600656 0.08615455 0.00044935106
0.09489813 0.099992424 0.014160767 0.17927873 -0.1214018 -0.05833469 -0.15618905 -0.16325375
0.16925187 0.09727978 0.031961303 -0.017231843 0.08838122 -0.091600604 0.17107892 -0.105446234
0.18816574 -0.0013582055 -0.017065885 -0.0069312695 -0.09043381 0.06481004 0.10133591 -0.070284374
0.045911368 -0.054768324 -0.169891 0.13412596 0.07446077 0.15979332 0.18611372 0.13857403
0.11845098 -0.15232751 -0.11492796 -0.006611077 0.15347055 0.18318011 0.0847537 0.17562671
-0.13922174 -0.12955369 0.05674979 -0.014890068 -0.13877651 0.003453348 -0.04805513 -0.057843708
-0.086366415 0.018031063 -0.0880475 0.16303709 0.11044059 -0.11525795 -0.16198243 0.06855176
-0.025617044 -0.083876446 -0.047696583 0.11833325 -0.03877414 -0.15471701 -0.14629781 0.059209965
-0.037504286 0.038490094 0.10969169 0.16718127 -0.044422712 -0.05814984 -0.022618555 -0.15574071
-0.06855741 -0.13211258 -0.06562165 -0.067063145 0.17169067 -0.0881961 0.14222439 -0.07115913
0.023430731 -0.003059786 0.009257196 -0.07285992 0.03150592 -0.10178591 0.06539337 0.040499527
0.08543762 0.072349325 -0.08555515 -0.047607817 0.10435723 0.021198975 0.13877739 -0.025734555
0.13735077 0.11030194 0.1356845 0.14917994 0.10269901 0.07053234 -0.043147136 -0.10856249
-0.15104316 -0.068430446 -0.087132536 -0.11653093 0.05031521 0.09473342 0.023665098 0.028895184
-0.026906325 -0.07325739 -0.12106371 0.12800972 0.009644285 -0.0396886 0.15686814 0.0058858423
-0.14414085 0.12038451 0.0956118 0.108642295 -0.0036815465 -0.10443363 0.1005456 -0.015281528
00000000: 56a7 023e edb2 973d 6b93 973d e941 9bbd
00000010: 28ff d13d 66b1 20be 3bde 913d 6650 08be
00000020: d1fc 2cbd 062b 9a3c 1c8a d63d 227c 05be
00000030: b32e 663d cc7d 0cbe 230f 9b3c 78f0 1c3e
00000040: c4fb ef3b 096f 203e ade5 5b3d 6e6d 87bd
00000050: 80f3 a93d dfcd b53c 6214 1e3e d14a dfbc
00000060: 021d 84bc c236 103d 37f7 14bd a675 ad3d
00000070: f7da 31be 0984 143c 3d81 863d 6660 a63b
00000080: 14de 0e3e 6af9 ffbd dddb 0f3e c00d f93d
00000090: d639 2b3d 7371 8abd a938 f13d 49c6 993d
000000a0: 42a1 eebc a7a4 d7bd 8e12 03be 09f8 b2bc
000000b0: 99b3 393e c47b c9bd f94f c2bc dac9 dd3d
000000c0: 0e9c 13bd d932 9abd c0de 5f3d ce97 f33d
000000d0: 64da f3bc 8938 89bb cc67 1b3e 981b 563d
000000e0: d5c3 623d 159f 6f3d 985c b73d 7573 11bd
000000f0: 762a 1abe d978 003d 4d99 173d a6c0 07be
00000100: fffd 983d b0f3 083d 7de8 b43d cc51 eabc
00000110: f5c6 e8bd 319e 603d f986 a7bd f67d 4a3d
00000120: f8cd a13d 481f 9c3d d5ab 8b3d fe53 bfbc
00000130: fb24 993d 9a45 b2bd 1d88 11be 0e8f c93d
00000140: 2306 293e c3eb 163e fa71 d0bd b4d9 cbbd
00000150: 5aa1 c2bd 415d e23d b494 133d 8b1c 1dbe
00000160: cc99 4abc 7f22 b6bd 1e99 d0bd 2be8 2b3e
00000170: 10fe 1e3e e20e 2d3e 64d2 c03d 6af0 06bd
00000180: 292a bd3d 547b 86bd 1b45 ac3c 1e28 efbd
00000190: a815 003e 098b bc3d 8866 c43d d050 f5bb
000001a0: f019 e93d 52b0 293e 3840 823d ea48 023e
000001b0: 03c2 0abe 16b8 713c 22df 1d3d a9d1 08be
000001c0: 9109 153d b7f8 a5bd 7ad9 35bd b86e ee3c
000001d0: a853 c3bc 302f e6bd 5496 023e acbc c13d
000001e0: 2df9 8fbc 4200 9e3d 093c 91bd 52a6 d13d
000001f0: b46a b1bd 5907 763d cc71 b03d e196 eb39
00000200: f359 c23d d4c8 cc3d 9002 683c d894 373e
00000210: 82a1 f8bd 5bf0 6ebd 06f0 1fbe fe2b 27be
00000220: 5d50 2d3e 9f3a c73d dbe9 023d cb29 8dbc
00000230: 3701 b53d 1999 bbbd 502f 2f3e 32f4 d7bd
00000240: 85ae 403e d005 b2ba c1cd 8bbc b41f e3bb
00000250: 5d35 b9bd 20bb 843d 3489 cf3d 41f1 8fbd
00000260: 8f0d 3c3d c054 60bd e8f7 2dbe 5158 093e
00000270: e37e 983d dca0 233e 9894 3e3e 5ae6 0d3e
00000280: 6d96 f23d befb 1bbe 5a5f ebbd bca1 d8bb
00000290: 6227 1d3e 9193 3b3e 5993 ad3d 7dd7 333e
000002a0: 2590 0ebe b9a9 04be 7872 683d 79f5 73bc
000002b0: 6e1b 0ebe 9151 623b 75d5 44bd 86ed 6cbd
000002c0: e0e0 b0bd e1b5 933c 3f52 b4bd 32f3 263e
000002d0: ad2e e23d 5c0c ecbd b9de 25be dd64 8c3d
000002e0: d6da d1bc 6ac7 abbd 7e5d 43bd b458 f23d
000002f0: a2d1 1ebd 236e 1ebe 18cf 15be 2686 723d
00000300: 189e 19bd caa7 1d3d 09a6 e03d 9131 2b3e
00000310: 97f4 35bd 872e 6ebd 8c4a b9bc 7e7a 1fbe
00000320: d467 8cbd 8548 07be a564 86bd 6758 89bd
00000330: aecf 2f3e 28a0 b4bd 45a3 113e e1bb 91bd
00000340: cef1 bf3c b186 48bb 7fab 173c 9537 95bd
00000350: 5a0c 013d 2275 d0bd f6ec 853d d5e2 253d
00000360: ebf9 ae3d e22b 943d 8a37 afbd 6a00 43bd
00000370: 3eb9 d53d 79a9 ad3c a91b 0e3e 46d1 d2bc
00000380: aea5 0c3e fce5 e13d e1f0 0a3e a0c2 183e
00000390: dc53 d23d 4273 903d 0dbb 30bd 0356 debd
000003a0: 0fab 1abe 4325 8cbd 8b72 b2bd c5a7 eebd
000003b0: 5217 4e3d 9803 c23d 4fdd c13c 98b5 ec3c
000003c0: a76a dcbc f807 96bd 40f0 f7bd fb14 033e
000003d0: 1003 1e3c 8390 22bd 0ba2 203e 06de c03b
000003e0: a999 13be 278c f63d 1fd0 c33d da7f de3d
000003f0: 1a46 71bb 4de1 d5bd daea cd3d 605f 7abc

actor_sigma.0.bias f4 [64]
0.014581476 0.014551157 0.012831393 0.014482702 0.014445693 0.014768736 0.014526136 0.014735157
0.014351474 0.0149927735 0.0053208563 0.014445472 0.0148015 0.014317604 0.014746145 0.014343393
0.013045442 0.01429372 0.014922156 0.0145807285 0.014880044 0.0146927815 0.014667353 0.014307048
0.014477177 0.013114073 0.014480376 0.014356063 0.014304396 0.014804073 0.014225156 0.014309896
0.014296756 0.01475637 0.014713206 0.0143004935 0.014449562 0.014394539 0.014781693 0.0
0.014325333 0.014856391 0.014309621 0.0143007245 0.014384987 0.014659306 0.014315015 0.013651141
0.014311021 0.014327103 0.014926855 0.0 0.0142991105 0.01456269 0.0 0.0
0.010448298 0.014759632 0.014365779 0.014336608 0.014349854 0.011556035 0.014395612 0.01450596
00000000: 25e7 6e3c fa67 6e3c c33a 523c db48 6d3c
00000010: a1ad 6c3c 92f8 713c 08ff 6d3c ba6b 713c
00000020: 7222 6b3c 40a4 753c 945a ae3b b3ac 6c3c
00000030: fe81 723c 6294 6a3c d199 713c 8d00 6b3c
00000040: 8dbc 553c 3530 6a3c 0f7c 743c 02e4 6e3c
00000050: 6ecb 733c feb9 703c 564f 703c 1c68 6a3c
00000060: ae31 6d3c 69dc 563c 193f 6d3c b135 6b3c
00000070: fc5c 6a3c c88c 723c a110 693c 0e74 6a3c
00000080: f13c 6a3c b4c4 713c a90f 713c 9e4c 6a3c
00000090: dbbd 6c3c 13d7 6b3c ea2e 723c 0000 0000
000000a0: cdb4 6a3c 3868 733c e772 6a3c 964d 6a3c
000000b0: 02af 6b3c 962d 703c 8689 6a3c 09a9 5f3c
000000c0: c678 6a3c 3abc 6a3c c58f 743c 0000 0000
000000d0: d146 6a3c 5998 6e3c 0000 0000 0000 0000
000000e0: 572f 2b3c 62d2 713c 725e 6b3c 18e4 6a3c
000000f0: a61b 6b3c 8655 3d3c 93db 6b3c 68aa 6d3c

actor_sigma.2.weight f4 [3, 64]
0.015166527 0.015075877 0.008474934 0.015115515 0.015444316 0.015155369 0.015040927 0.014315774
0.0145165445 0.014769866 0.0035855656 0.014750995 0.0152271595 0.014804907 0.014720953 0.015397141
0.013413379 0.01415272 0.0146600995 0.015478468 0.015179871 0.014376471 0.015548454 0.014413325
0.014898914 0.013217119 0.013454373 0.014773168 0.013831547 0.015640598 0.013100798 0.0143817635
0.014166834 0.01408373 0.015644725 0.014424076 0.015436944 0.014769677 0.015825227 0.0
0.015541646 0.014416506 0.014931088 0.013899701 0.014623853 0.014615019 0.014639205 0.014141471
0.015196133 0.015105743 0.015755381 0.0 0.014257272 0.015205421 0.0 0.0
0.009159199 0.014936319 0.014684815 0.013357715 0.015066284 0.011891971 0.015143365 0.014487775
0.015104268 0.015027117 0.008416629 0.015060247 0.015380756 0.0151336035 0.015022865 0.014304631
0.01447728 0.014830625 0.003543442 0.01470107 0.01523134 0.014749295 0.01462649 0.015390774
0.013408637 0.014131983 0.01456748 0.015445609 0.01517802 0.014347104 0.015521159 0.014367655
0.014849063 0.012747056 0.013379429 0.014737267 0.013804342 0.01560334 0.013114543 0.01436402
0.014136083 0.014000634 0.015572672 0.014394604 0.015420548 0.014761942 0.015814701 0.0
0.015525445 0.014244908 0.014905089 0.013856284 0.01461813 0.014686491 0.01459017 0.0141438665
0.015157626 0.015076528 0.015735699 0.0 0.014156765 0.015190627 0.0 0.0
0.008466745 0.014861984 0.01467344 0.013344716 0.015040426 0.011781121 0.015054043 0.014460795
0.015100972 0.015041795 0.008381596 0.015090407 0.015428671 0.015141519 0.015010858 0.014228455
0.014460025 0.0147716645 0.0034937395 0.0147231 0.015233738 0.014731707 0.014616522 0.015400064
0.013295752 0.014123538 0.014578979 0.015504717 0.015125363 0.014387551 0.01553334 0.014364809
0.014856538 0.013558856 0.013387749 0.0147402845 0.013786542 0.015586087 0.013060706 0.014332878
0.014127066 0.014007052 0.015580624 0.014408684 0.015405594 0.014739731 0.015759567 0.0
0.0155483745 0.014458022 0.014896147 0.013853007 0.014609602 0.014618281 0.014608739 0.014112284
0.015178661 0.015073851 0.015803818 0.0 0.0143459365 0.015182866 0.0 0.0
0.008463294 0.014830907 0.014663843 0.013330634 0.015038839 0.0118473675 0.015175282 0.014440908
00000000: 067d 783c d000 773c 73da 0a3c 11a7 773c
00000010: 280a 7d3c 3a4e 783c 386e 763c b58c 6a3c
00000020: cdd6 6d3c 4ffd 713c cffb 6a3b 28ae 713c
00000030: 567b 793c 4890 723c 2730 713c 4a44 7c3c
00000040: cac3 5b3c cfe0 673c ea30 703c 6699 7d3c
00000050: feb4 783c 4a8b 6b3c f1be 7e3c de25 6c3c
00000060: 931a 743c 9d8c 583c bb6f 5c3c 280b 723c
00000070: b79d 623c b620 803c bba4 563c 7da1 6b3c
00000080: 021c 683c 72bf 663c 5e29 803c f652 6c3c
00000090: 3ceb 7c3c 84fc 713c e8a3 813c 0000 0000
000000a0: 63a2 7e3c 3533 6c3c 86a1 743c 92bb 633c
000000b0: e398 6f3c d573 6f3c 47d9 6f3c a1b1 673c
000000c0: 34f9 783c 147e 773c 6e11 813c 0000 0000
000000d0: 5597 693c 2820 793c 0000 0000 0000 0000
000000e0: 7710 163c 76b7 743c 9498 703c 51da 5a3c
000000f0: 93d8 763c 8bd6 423c e01b 783c 225e 6d3c
00000100: e477 773c 4c34 763c e7e5 093c 41bf 763c
00000110: 91ff 7b3c eff2 773c 7622 763c f95d 6a3c
00000120: 1d32 6d3c 26fc 723c 1839 683b c2dc 703c
00000130: df8c 793c 07a7 713c f2a3 6f3c 9629 7c3c
00000140: e6af 5b3c d589 673c 71ac 6e3c 940f 7d3c
00000150: 3bad 783c 1e10 6b3c 764c 7e3c 5066 6b3c
00000160: 7c49 733c 07d9 503c 6435 5b3c 9474 713c
00000170: 9b2b 623c 27a5 7f3c 61de 563c 1157 6b3c
00000180: 089b 673c ea62 653c 8524 7f3c 58d7 6b3c
00000190: 77a6 7c3c 13dc 713c d58d 813c 0000 0000
000001a0: 705e 7e3c 7963 693c 7934 743c 7805 633c
000001b0: e280 6f3c 9c9f 703c 9c0b 6f3c adbb 673c
000001c0: b157 783c 8b03 773c 27e8 803c 0000 0000
000001d0: c7f1 673c 1ce2 783c 0000 0000 0000 0000
000001e0: 1ab8 0a3c ae7f 733c de68 703c cca3 5a3c
000001f0: 1e6c 763c 9a05 413c 3ca5 763c f8ec 6c3c
00000200: 116a 773c dc71 763c f652 093c c13d 773c
00000210: 89c8 7c3c 2214 783c 1af0 753c 771e 693c
00000220: bee9 6c3c da04 723c 39f7 643b 2839 713c
00000230: ee96 793c 425d 713c 237a 6f3c 8d50 7c3c
00000240: 6dd6 593c 6966 673c acdc 6e3c 7f07 7e3c
00000250: 5fd0 773c c3b9 6b3c 8d7f 7e3c 605a 6b3c
00000260: d668 733c f725 5e3c 4a58 5b3c 3c81 713c
00000270: f3e0 613c c95c 7f3c 92fc 553c 73d4 6a3c
00000280: 3675 673c d67d 653c e045 7f3c 6712 6c3c
00000290: bf67 7c3c ea7e 713c 351a 813c 0000 0000
000002a0: 9cbe 7e3c 57e1 6c3c f80e 743c b9f7 623c
000002b0: 1d5d 6f3c 8481 6f3c 7e59 6f3c 3637 673c
000002c0: ebaf 783c 50f8 763c 0277 813c 0000 0000
000002d0: 380b 6b3c 8ec1 783c 0000 0000 0000 0000
000002e0: a1a9 0a3c 55fd 723c 9e40 703c bb68 5a3c
000002f0: 7665 763c 761b 423c bfa1 783c 8f99 6c3c

actor_sigma.2.bias f4 [3]
-0.9876217 -0.98762506 -0.98765826
00000000: c7d4 7cbf ffd4 7cbf 2cd7 7cbf
